<?xml version="1.0" ?>
<net batch="1" name="frozen_inference_graph" version="6">
	<layers>
		<layer id="0" name="image_tensor" precision="FP32" type="Input">
			<output>
				<port id="0">
					<dim>1</dim>
					<dim>3</dim>
					<dim>600</dim>
					<dim>600</dim>
				</port>
			</output>
		</layer>
		<layer id="1" name="ScaleShift/Preprocessor/sub/add_" precision="FP32" type="ScaleShift">
			<input>
				<port id="0">
					<dim>1</dim>
					<dim>3</dim>
					<dim>600</dim>
					<dim>600</dim>
				</port>
			</input>
			<output>
				<port id="3">
					<dim>1</dim>
					<dim>3</dim>
					<dim>600</dim>
					<dim>600</dim>
				</port>
			</output>
			<blobs>
				<weights offset="0" size="12"/>
				<biases offset="12" size="12"/>
			</blobs>
		</layer>
		<layer id="2" name="FirstStageFeatureExtractor/resnet_v1_50/resnet_v1_50/conv1/Conv2D" precision="FP32" type="Convolution">
			<data dilations="1,1" group="1" kernel="7,7" output="64" pads_begin="3,3" pads_end="3,3" strides="2,2"/>
			<input>
				<port id="0">
					<dim>1</dim>
					<dim>3</dim>
					<dim>600</dim>
					<dim>600</dim>
				</port>
			</input>
			<output>
				<port id="3">
					<dim>1</dim>
					<dim>64</dim>
					<dim>300</dim>
					<dim>300</dim>
				</port>
			</output>
			<blobs>
				<weights offset="24" size="37632"/>
				<biases offset="37656" size="256"/>
			</blobs>
		</layer>
		<layer id="3" name="FirstStageFeatureExtractor/resnet_v1_50/resnet_v1_50/conv1/Relu" precision="FP32" type="ReLU">
			<input>
				<port id="0">
					<dim>1</dim>
					<dim>64</dim>
					<dim>300</dim>
					<dim>300</dim>
				</port>
			</input>
			<output>
				<port id="1">
					<dim>1</dim>
					<dim>64</dim>
					<dim>300</dim>
					<dim>300</dim>
				</port>
			</output>
		</layer>
		<layer id="4" name="FirstStageFeatureExtractor/resnet_v1_50/resnet_v1_50/pool1/MaxPool" precision="FP32" type="Pooling">
			<data auto_pad="same_upper" exclude-pad="true" kernel="3,3" pads_begin="0,0" pads_end="1,1" pool-method="max" strides="2,2"/>
			<input>
				<port id="0">
					<dim>1</dim>
					<dim>64</dim>
					<dim>300</dim>
					<dim>300</dim>
				</port>
			</input>
			<output>
				<port id="1">
					<dim>1</dim>
					<dim>64</dim>
					<dim>150</dim>
					<dim>150</dim>
				</port>
			</output>
		</layer>
		<layer id="5" name="FirstStageFeatureExtractor/resnet_v1_50/resnet_v1_50/block1/unit_1/bottleneck_v1/shortcut/Conv2D" precision="FP32" type="Convolution">
			<data auto_pad="same_upper" dilations="1,1" group="1" kernel="1,1" output="256" pads_begin="0,0" pads_end="0,0" strides="1,1"/>
			<input>
				<port id="0">
					<dim>1</dim>
					<dim>64</dim>
					<dim>150</dim>
					<dim>150</dim>
				</port>
			</input>
			<output>
				<port id="3">
					<dim>1</dim>
					<dim>256</dim>
					<dim>150</dim>
					<dim>150</dim>
				</port>
			</output>
			<blobs>
				<weights offset="37912" size="65536"/>
				<biases offset="103448" size="1024"/>
			</blobs>
		</layer>
		<layer id="6" name="FirstStageFeatureExtractor/resnet_v1_50/resnet_v1_50/block1/unit_1/bottleneck_v1/conv1/Conv2D" precision="FP32" type="Convolution">
			<data auto_pad="same_upper" dilations="1,1" group="1" kernel="1,1" output="64" pads_begin="0,0" pads_end="0,0" strides="1,1"/>
			<input>
				<port id="0">
					<dim>1</dim>
					<dim>64</dim>
					<dim>150</dim>
					<dim>150</dim>
				</port>
			</input>
			<output>
				<port id="3">
					<dim>1</dim>
					<dim>64</dim>
					<dim>150</dim>
					<dim>150</dim>
				</port>
			</output>
			<blobs>
				<weights offset="104472" size="16384"/>
				<biases offset="120856" size="256"/>
			</blobs>
		</layer>
		<layer id="7" name="FirstStageFeatureExtractor/resnet_v1_50/resnet_v1_50/block1/unit_1/bottleneck_v1/conv1/Relu" precision="FP32" type="ReLU">
			<input>
				<port id="0">
					<dim>1</dim>
					<dim>64</dim>
					<dim>150</dim>
					<dim>150</dim>
				</port>
			</input>
			<output>
				<port id="1">
					<dim>1</dim>
					<dim>64</dim>
					<dim>150</dim>
					<dim>150</dim>
				</port>
			</output>
		</layer>
		<layer id="8" name="FirstStageFeatureExtractor/resnet_v1_50/resnet_v1_50/block1/unit_1/bottleneck_v1/conv2/Conv2D" precision="FP32" type="Convolution">
			<data auto_pad="same_upper" dilations="1,1" group="1" kernel="3,3" output="64" pads_begin="1,1" pads_end="1,1" strides="1,1"/>
			<input>
				<port id="0">
					<dim>1</dim>
					<dim>64</dim>
					<dim>150</dim>
					<dim>150</dim>
				</port>
			</input>
			<output>
				<port id="3">
					<dim>1</dim>
					<dim>64</dim>
					<dim>150</dim>
					<dim>150</dim>
				</port>
			</output>
			<blobs>
				<weights offset="121112" size="147456"/>
				<biases offset="268568" size="256"/>
			</blobs>
		</layer>
		<layer id="9" name="FirstStageFeatureExtractor/resnet_v1_50/resnet_v1_50/block1/unit_1/bottleneck_v1/conv2/Relu" precision="FP32" type="ReLU">
			<input>
				<port id="0">
					<dim>1</dim>
					<dim>64</dim>
					<dim>150</dim>
					<dim>150</dim>
				</port>
			</input>
			<output>
				<port id="1">
					<dim>1</dim>
					<dim>64</dim>
					<dim>150</dim>
					<dim>150</dim>
				</port>
			</output>
		</layer>
		<layer id="10" name="FirstStageFeatureExtractor/resnet_v1_50/resnet_v1_50/block1/unit_1/bottleneck_v1/conv3/Conv2D" precision="FP32" type="Convolution">
			<data auto_pad="same_upper" dilations="1,1" group="1" kernel="1,1" output="256" pads_begin="0,0" pads_end="0,0" strides="1,1"/>
			<input>
				<port id="0">
					<dim>1</dim>
					<dim>64</dim>
					<dim>150</dim>
					<dim>150</dim>
				</port>
			</input>
			<output>
				<port id="3">
					<dim>1</dim>
					<dim>256</dim>
					<dim>150</dim>
					<dim>150</dim>
				</port>
			</output>
			<blobs>
				<weights offset="268824" size="65536"/>
				<biases offset="334360" size="1024"/>
			</blobs>
		</layer>
		<layer id="11" name="FirstStageFeatureExtractor/resnet_v1_50/resnet_v1_50/block1/unit_1/bottleneck_v1/add" precision="FP32" type="Eltwise">
			<data operation="sum"/>
			<input>
				<port id="0">
					<dim>1</dim>
					<dim>256</dim>
					<dim>150</dim>
					<dim>150</dim>
				</port>
				<port id="1">
					<dim>1</dim>
					<dim>256</dim>
					<dim>150</dim>
					<dim>150</dim>
				</port>
			</input>
			<output>
				<port id="2">
					<dim>1</dim>
					<dim>256</dim>
					<dim>150</dim>
					<dim>150</dim>
				</port>
			</output>
		</layer>
		<layer id="12" name="FirstStageFeatureExtractor/resnet_v1_50/resnet_v1_50/block1/unit_1/bottleneck_v1/Relu" precision="FP32" type="ReLU">
			<input>
				<port id="0">
					<dim>1</dim>
					<dim>256</dim>
					<dim>150</dim>
					<dim>150</dim>
				</port>
			</input>
			<output>
				<port id="1">
					<dim>1</dim>
					<dim>256</dim>
					<dim>150</dim>
					<dim>150</dim>
				</port>
			</output>
		</layer>
		<layer id="13" name="FirstStageFeatureExtractor/resnet_v1_50/resnet_v1_50/block1/unit_2/bottleneck_v1/conv1/Conv2D" precision="FP32" type="Convolution">
			<data auto_pad="same_upper" dilations="1,1" group="1" kernel="1,1" output="64" pads_begin="0,0" pads_end="0,0" strides="1,1"/>
			<input>
				<port id="0">
					<dim>1</dim>
					<dim>256</dim>
					<dim>150</dim>
					<dim>150</dim>
				</port>
			</input>
			<output>
				<port id="3">
					<dim>1</dim>
					<dim>64</dim>
					<dim>150</dim>
					<dim>150</dim>
				</port>
			</output>
			<blobs>
				<weights offset="335384" size="65536"/>
				<biases offset="400920" size="256"/>
			</blobs>
		</layer>
		<layer id="14" name="FirstStageFeatureExtractor/resnet_v1_50/resnet_v1_50/block1/unit_2/bottleneck_v1/conv1/Relu" precision="FP32" type="ReLU">
			<input>
				<port id="0">
					<dim>1</dim>
					<dim>64</dim>
					<dim>150</dim>
					<dim>150</dim>
				</port>
			</input>
			<output>
				<port id="1">
					<dim>1</dim>
					<dim>64</dim>
					<dim>150</dim>
					<dim>150</dim>
				</port>
			</output>
		</layer>
		<layer id="15" name="FirstStageFeatureExtractor/resnet_v1_50/resnet_v1_50/block1/unit_2/bottleneck_v1/conv2/Conv2D" precision="FP32" type="Convolution">
			<data auto_pad="same_upper" dilations="1,1" group="1" kernel="3,3" output="64" pads_begin="1,1" pads_end="1,1" strides="1,1"/>
			<input>
				<port id="0">
					<dim>1</dim>
					<dim>64</dim>
					<dim>150</dim>
					<dim>150</dim>
				</port>
			</input>
			<output>
				<port id="3">
					<dim>1</dim>
					<dim>64</dim>
					<dim>150</dim>
					<dim>150</dim>
				</port>
			</output>
			<blobs>
				<weights offset="401176" size="147456"/>
				<biases offset="548632" size="256"/>
			</blobs>
		</layer>
		<layer id="16" name="FirstStageFeatureExtractor/resnet_v1_50/resnet_v1_50/block1/unit_2/bottleneck_v1/conv2/Relu" precision="FP32" type="ReLU">
			<input>
				<port id="0">
					<dim>1</dim>
					<dim>64</dim>
					<dim>150</dim>
					<dim>150</dim>
				</port>
			</input>
			<output>
				<port id="1">
					<dim>1</dim>
					<dim>64</dim>
					<dim>150</dim>
					<dim>150</dim>
				</port>
			</output>
		</layer>
		<layer id="17" name="FirstStageFeatureExtractor/resnet_v1_50/resnet_v1_50/block1/unit_2/bottleneck_v1/conv3/Conv2D" precision="FP32" type="Convolution">
			<data auto_pad="same_upper" dilations="1,1" group="1" kernel="1,1" output="256" pads_begin="0,0" pads_end="0,0" strides="1,1"/>
			<input>
				<port id="0">
					<dim>1</dim>
					<dim>64</dim>
					<dim>150</dim>
					<dim>150</dim>
				</port>
			</input>
			<output>
				<port id="3">
					<dim>1</dim>
					<dim>256</dim>
					<dim>150</dim>
					<dim>150</dim>
				</port>
			</output>
			<blobs>
				<weights offset="548888" size="65536"/>
				<biases offset="614424" size="1024"/>
			</blobs>
		</layer>
		<layer id="18" name="FirstStageFeatureExtractor/resnet_v1_50/resnet_v1_50/block1/unit_2/bottleneck_v1/add" precision="FP32" type="Eltwise">
			<data operation="sum"/>
			<input>
				<port id="0">
					<dim>1</dim>
					<dim>256</dim>
					<dim>150</dim>
					<dim>150</dim>
				</port>
				<port id="1">
					<dim>1</dim>
					<dim>256</dim>
					<dim>150</dim>
					<dim>150</dim>
				</port>
			</input>
			<output>
				<port id="2">
					<dim>1</dim>
					<dim>256</dim>
					<dim>150</dim>
					<dim>150</dim>
				</port>
			</output>
		</layer>
		<layer id="19" name="FirstStageFeatureExtractor/resnet_v1_50/resnet_v1_50/block1/unit_2/bottleneck_v1/Relu" precision="FP32" type="ReLU">
			<input>
				<port id="0">
					<dim>1</dim>
					<dim>256</dim>
					<dim>150</dim>
					<dim>150</dim>
				</port>
			</input>
			<output>
				<port id="1">
					<dim>1</dim>
					<dim>256</dim>
					<dim>150</dim>
					<dim>150</dim>
				</port>
			</output>
		</layer>
		<layer id="20" name="FirstStageFeatureExtractor/resnet_v1_50/resnet_v1_50/block1/unit_3/bottleneck_v1/shortcut/MaxPool" precision="FP32" type="Pooling">
			<data auto_pad="same_upper" exclude-pad="true" kernel="1,1" pads_begin="0,0" pads_end="0,0" pool-method="max" strides="2,2"/>
			<input>
				<port id="0">
					<dim>1</dim>
					<dim>256</dim>
					<dim>150</dim>
					<dim>150</dim>
				</port>
			</input>
			<output>
				<port id="1">
					<dim>1</dim>
					<dim>256</dim>
					<dim>75</dim>
					<dim>75</dim>
				</port>
			</output>
		</layer>
		<layer id="21" name="FirstStageFeatureExtractor/resnet_v1_50/resnet_v1_50/block1/unit_3/bottleneck_v1/conv1/Conv2D" precision="FP32" type="Convolution">
			<data auto_pad="same_upper" dilations="1,1" group="1" kernel="1,1" output="64" pads_begin="0,0" pads_end="0,0" strides="1,1"/>
			<input>
				<port id="0">
					<dim>1</dim>
					<dim>256</dim>
					<dim>150</dim>
					<dim>150</dim>
				</port>
			</input>
			<output>
				<port id="3">
					<dim>1</dim>
					<dim>64</dim>
					<dim>150</dim>
					<dim>150</dim>
				</port>
			</output>
			<blobs>
				<weights offset="615448" size="65536"/>
				<biases offset="680984" size="256"/>
			</blobs>
		</layer>
		<layer id="22" name="FirstStageFeatureExtractor/resnet_v1_50/resnet_v1_50/block1/unit_3/bottleneck_v1/conv1/Relu" precision="FP32" type="ReLU">
			<input>
				<port id="0">
					<dim>1</dim>
					<dim>64</dim>
					<dim>150</dim>
					<dim>150</dim>
				</port>
			</input>
			<output>
				<port id="1">
					<dim>1</dim>
					<dim>64</dim>
					<dim>150</dim>
					<dim>150</dim>
				</port>
			</output>
		</layer>
		<layer id="23" name="FirstStageFeatureExtractor/resnet_v1_50/resnet_v1_50/block1/unit_3/bottleneck_v1/conv2/Conv2D" precision="FP32" type="Convolution">
			<data dilations="1,1" group="1" kernel="3,3" output="64" pads_begin="1,1" pads_end="1,1" strides="2,2"/>
			<input>
				<port id="0">
					<dim>1</dim>
					<dim>64</dim>
					<dim>150</dim>
					<dim>150</dim>
				</port>
			</input>
			<output>
				<port id="3">
					<dim>1</dim>
					<dim>64</dim>
					<dim>75</dim>
					<dim>75</dim>
				</port>
			</output>
			<blobs>
				<weights offset="681240" size="147456"/>
				<biases offset="828696" size="256"/>
			</blobs>
		</layer>
		<layer id="24" name="FirstStageFeatureExtractor/resnet_v1_50/resnet_v1_50/block1/unit_3/bottleneck_v1/conv2/Relu" precision="FP32" type="ReLU">
			<input>
				<port id="0">
					<dim>1</dim>
					<dim>64</dim>
					<dim>75</dim>
					<dim>75</dim>
				</port>
			</input>
			<output>
				<port id="1">
					<dim>1</dim>
					<dim>64</dim>
					<dim>75</dim>
					<dim>75</dim>
				</port>
			</output>
		</layer>
		<layer id="25" name="FirstStageFeatureExtractor/resnet_v1_50/resnet_v1_50/block1/unit_3/bottleneck_v1/conv3/Conv2D" precision="FP32" type="Convolution">
			<data auto_pad="same_upper" dilations="1,1" group="1" kernel="1,1" output="256" pads_begin="0,0" pads_end="0,0" strides="1,1"/>
			<input>
				<port id="0">
					<dim>1</dim>
					<dim>64</dim>
					<dim>75</dim>
					<dim>75</dim>
				</port>
			</input>
			<output>
				<port id="3">
					<dim>1</dim>
					<dim>256</dim>
					<dim>75</dim>
					<dim>75</dim>
				</port>
			</output>
			<blobs>
				<weights offset="828952" size="65536"/>
				<biases offset="894488" size="1024"/>
			</blobs>
		</layer>
		<layer id="26" name="FirstStageFeatureExtractor/resnet_v1_50/resnet_v1_50/block1/unit_3/bottleneck_v1/add" precision="FP32" type="Eltwise">
			<data operation="sum"/>
			<input>
				<port id="0">
					<dim>1</dim>
					<dim>256</dim>
					<dim>75</dim>
					<dim>75</dim>
				</port>
				<port id="1">
					<dim>1</dim>
					<dim>256</dim>
					<dim>75</dim>
					<dim>75</dim>
				</port>
			</input>
			<output>
				<port id="2">
					<dim>1</dim>
					<dim>256</dim>
					<dim>75</dim>
					<dim>75</dim>
				</port>
			</output>
		</layer>
		<layer id="27" name="FirstStageFeatureExtractor/resnet_v1_50/resnet_v1_50/block1/unit_3/bottleneck_v1/Relu" precision="FP32" type="ReLU">
			<input>
				<port id="0">
					<dim>1</dim>
					<dim>256</dim>
					<dim>75</dim>
					<dim>75</dim>
				</port>
			</input>
			<output>
				<port id="1">
					<dim>1</dim>
					<dim>256</dim>
					<dim>75</dim>
					<dim>75</dim>
				</port>
			</output>
		</layer>
		<layer id="28" name="FirstStageFeatureExtractor/resnet_v1_50/resnet_v1_50/block2/unit_1/bottleneck_v1/shortcut/Conv2D" precision="FP32" type="Convolution">
			<data auto_pad="same_upper" dilations="1,1" group="1" kernel="1,1" output="512" pads_begin="0,0" pads_end="0,0" strides="1,1"/>
			<input>
				<port id="0">
					<dim>1</dim>
					<dim>256</dim>
					<dim>75</dim>
					<dim>75</dim>
				</port>
			</input>
			<output>
				<port id="3">
					<dim>1</dim>
					<dim>512</dim>
					<dim>75</dim>
					<dim>75</dim>
				</port>
			</output>
			<blobs>
				<weights offset="895512" size="524288"/>
				<biases offset="1419800" size="2048"/>
			</blobs>
		</layer>
		<layer id="29" name="FirstStageFeatureExtractor/resnet_v1_50/resnet_v1_50/block2/unit_1/bottleneck_v1/conv1/Conv2D" precision="FP32" type="Convolution">
			<data auto_pad="same_upper" dilations="1,1" group="1" kernel="1,1" output="128" pads_begin="0,0" pads_end="0,0" strides="1,1"/>
			<input>
				<port id="0">
					<dim>1</dim>
					<dim>256</dim>
					<dim>75</dim>
					<dim>75</dim>
				</port>
			</input>
			<output>
				<port id="3">
					<dim>1</dim>
					<dim>128</dim>
					<dim>75</dim>
					<dim>75</dim>
				</port>
			</output>
			<blobs>
				<weights offset="1421848" size="131072"/>
				<biases offset="1552920" size="512"/>
			</blobs>
		</layer>
		<layer id="30" name="FirstStageFeatureExtractor/resnet_v1_50/resnet_v1_50/block2/unit_1/bottleneck_v1/conv1/Relu" precision="FP32" type="ReLU">
			<input>
				<port id="0">
					<dim>1</dim>
					<dim>128</dim>
					<dim>75</dim>
					<dim>75</dim>
				</port>
			</input>
			<output>
				<port id="1">
					<dim>1</dim>
					<dim>128</dim>
					<dim>75</dim>
					<dim>75</dim>
				</port>
			</output>
		</layer>
		<layer id="31" name="FirstStageFeatureExtractor/resnet_v1_50/resnet_v1_50/block2/unit_1/bottleneck_v1/conv2/Conv2D" precision="FP32" type="Convolution">
			<data auto_pad="same_upper" dilations="1,1" group="1" kernel="3,3" output="128" pads_begin="1,1" pads_end="1,1" strides="1,1"/>
			<input>
				<port id="0">
					<dim>1</dim>
					<dim>128</dim>
					<dim>75</dim>
					<dim>75</dim>
				</port>
			</input>
			<output>
				<port id="3">
					<dim>1</dim>
					<dim>128</dim>
					<dim>75</dim>
					<dim>75</dim>
				</port>
			</output>
			<blobs>
				<weights offset="1553432" size="589824"/>
				<biases offset="2143256" size="512"/>
			</blobs>
		</layer>
		<layer id="32" name="FirstStageFeatureExtractor/resnet_v1_50/resnet_v1_50/block2/unit_1/bottleneck_v1/conv2/Relu" precision="FP32" type="ReLU">
			<input>
				<port id="0">
					<dim>1</dim>
					<dim>128</dim>
					<dim>75</dim>
					<dim>75</dim>
				</port>
			</input>
			<output>
				<port id="1">
					<dim>1</dim>
					<dim>128</dim>
					<dim>75</dim>
					<dim>75</dim>
				</port>
			</output>
		</layer>
		<layer id="33" name="FirstStageFeatureExtractor/resnet_v1_50/resnet_v1_50/block2/unit_1/bottleneck_v1/conv3/Conv2D" precision="FP32" type="Convolution">
			<data auto_pad="same_upper" dilations="1,1" group="1" kernel="1,1" output="512" pads_begin="0,0" pads_end="0,0" strides="1,1"/>
			<input>
				<port id="0">
					<dim>1</dim>
					<dim>128</dim>
					<dim>75</dim>
					<dim>75</dim>
				</port>
			</input>
			<output>
				<port id="3">
					<dim>1</dim>
					<dim>512</dim>
					<dim>75</dim>
					<dim>75</dim>
				</port>
			</output>
			<blobs>
				<weights offset="2143768" size="262144"/>
				<biases offset="2405912" size="2048"/>
			</blobs>
		</layer>
		<layer id="34" name="FirstStageFeatureExtractor/resnet_v1_50/resnet_v1_50/block2/unit_1/bottleneck_v1/add" precision="FP32" type="Eltwise">
			<data operation="sum"/>
			<input>
				<port id="0">
					<dim>1</dim>
					<dim>512</dim>
					<dim>75</dim>
					<dim>75</dim>
				</port>
				<port id="1">
					<dim>1</dim>
					<dim>512</dim>
					<dim>75</dim>
					<dim>75</dim>
				</port>
			</input>
			<output>
				<port id="2">
					<dim>1</dim>
					<dim>512</dim>
					<dim>75</dim>
					<dim>75</dim>
				</port>
			</output>
		</layer>
		<layer id="35" name="FirstStageFeatureExtractor/resnet_v1_50/resnet_v1_50/block2/unit_1/bottleneck_v1/Relu" precision="FP32" type="ReLU">
			<input>
				<port id="0">
					<dim>1</dim>
					<dim>512</dim>
					<dim>75</dim>
					<dim>75</dim>
				</port>
			</input>
			<output>
				<port id="1">
					<dim>1</dim>
					<dim>512</dim>
					<dim>75</dim>
					<dim>75</dim>
				</port>
			</output>
		</layer>
		<layer id="36" name="FirstStageFeatureExtractor/resnet_v1_50/resnet_v1_50/block2/unit_2/bottleneck_v1/conv1/Conv2D" precision="FP32" type="Convolution">
			<data auto_pad="same_upper" dilations="1,1" group="1" kernel="1,1" output="128" pads_begin="0,0" pads_end="0,0" strides="1,1"/>
			<input>
				<port id="0">
					<dim>1</dim>
					<dim>512</dim>
					<dim>75</dim>
					<dim>75</dim>
				</port>
			</input>
			<output>
				<port id="3">
					<dim>1</dim>
					<dim>128</dim>
					<dim>75</dim>
					<dim>75</dim>
				</port>
			</output>
			<blobs>
				<weights offset="2407960" size="262144"/>
				<biases offset="2670104" size="512"/>
			</blobs>
		</layer>
		<layer id="37" name="FirstStageFeatureExtractor/resnet_v1_50/resnet_v1_50/block2/unit_2/bottleneck_v1/conv1/Relu" precision="FP32" type="ReLU">
			<input>
				<port id="0">
					<dim>1</dim>
					<dim>128</dim>
					<dim>75</dim>
					<dim>75</dim>
				</port>
			</input>
			<output>
				<port id="1">
					<dim>1</dim>
					<dim>128</dim>
					<dim>75</dim>
					<dim>75</dim>
				</port>
			</output>
		</layer>
		<layer id="38" name="FirstStageFeatureExtractor/resnet_v1_50/resnet_v1_50/block2/unit_2/bottleneck_v1/conv2/Conv2D" precision="FP32" type="Convolution">
			<data auto_pad="same_upper" dilations="1,1" group="1" kernel="3,3" output="128" pads_begin="1,1" pads_end="1,1" strides="1,1"/>
			<input>
				<port id="0">
					<dim>1</dim>
					<dim>128</dim>
					<dim>75</dim>
					<dim>75</dim>
				</port>
			</input>
			<output>
				<port id="3">
					<dim>1</dim>
					<dim>128</dim>
					<dim>75</dim>
					<dim>75</dim>
				</port>
			</output>
			<blobs>
				<weights offset="2670616" size="589824"/>
				<biases offset="3260440" size="512"/>
			</blobs>
		</layer>
		<layer id="39" name="FirstStageFeatureExtractor/resnet_v1_50/resnet_v1_50/block2/unit_2/bottleneck_v1/conv2/Relu" precision="FP32" type="ReLU">
			<input>
				<port id="0">
					<dim>1</dim>
					<dim>128</dim>
					<dim>75</dim>
					<dim>75</dim>
				</port>
			</input>
			<output>
				<port id="1">
					<dim>1</dim>
					<dim>128</dim>
					<dim>75</dim>
					<dim>75</dim>
				</port>
			</output>
		</layer>
		<layer id="40" name="FirstStageFeatureExtractor/resnet_v1_50/resnet_v1_50/block2/unit_2/bottleneck_v1/conv3/Conv2D" precision="FP32" type="Convolution">
			<data auto_pad="same_upper" dilations="1,1" group="1" kernel="1,1" output="512" pads_begin="0,0" pads_end="0,0" strides="1,1"/>
			<input>
				<port id="0">
					<dim>1</dim>
					<dim>128</dim>
					<dim>75</dim>
					<dim>75</dim>
				</port>
			</input>
			<output>
				<port id="3">
					<dim>1</dim>
					<dim>512</dim>
					<dim>75</dim>
					<dim>75</dim>
				</port>
			</output>
			<blobs>
				<weights offset="3260952" size="262144"/>
				<biases offset="3523096" size="2048"/>
			</blobs>
		</layer>
		<layer id="41" name="FirstStageFeatureExtractor/resnet_v1_50/resnet_v1_50/block2/unit_2/bottleneck_v1/add" precision="FP32" type="Eltwise">
			<data operation="sum"/>
			<input>
				<port id="0">
					<dim>1</dim>
					<dim>512</dim>
					<dim>75</dim>
					<dim>75</dim>
				</port>
				<port id="1">
					<dim>1</dim>
					<dim>512</dim>
					<dim>75</dim>
					<dim>75</dim>
				</port>
			</input>
			<output>
				<port id="2">
					<dim>1</dim>
					<dim>512</dim>
					<dim>75</dim>
					<dim>75</dim>
				</port>
			</output>
		</layer>
		<layer id="42" name="FirstStageFeatureExtractor/resnet_v1_50/resnet_v1_50/block2/unit_2/bottleneck_v1/Relu" precision="FP32" type="ReLU">
			<input>
				<port id="0">
					<dim>1</dim>
					<dim>512</dim>
					<dim>75</dim>
					<dim>75</dim>
				</port>
			</input>
			<output>
				<port id="1">
					<dim>1</dim>
					<dim>512</dim>
					<dim>75</dim>
					<dim>75</dim>
				</port>
			</output>
		</layer>
		<layer id="43" name="FirstStageFeatureExtractor/resnet_v1_50/resnet_v1_50/block2/unit_3/bottleneck_v1/conv1/Conv2D" precision="FP32" type="Convolution">
			<data auto_pad="same_upper" dilations="1,1" group="1" kernel="1,1" output="128" pads_begin="0,0" pads_end="0,0" strides="1,1"/>
			<input>
				<port id="0">
					<dim>1</dim>
					<dim>512</dim>
					<dim>75</dim>
					<dim>75</dim>
				</port>
			</input>
			<output>
				<port id="3">
					<dim>1</dim>
					<dim>128</dim>
					<dim>75</dim>
					<dim>75</dim>
				</port>
			</output>
			<blobs>
				<weights offset="3525144" size="262144"/>
				<biases offset="3787288" size="512"/>
			</blobs>
		</layer>
		<layer id="44" name="FirstStageFeatureExtractor/resnet_v1_50/resnet_v1_50/block2/unit_3/bottleneck_v1/conv1/Relu" precision="FP32" type="ReLU">
			<input>
				<port id="0">
					<dim>1</dim>
					<dim>128</dim>
					<dim>75</dim>
					<dim>75</dim>
				</port>
			</input>
			<output>
				<port id="1">
					<dim>1</dim>
					<dim>128</dim>
					<dim>75</dim>
					<dim>75</dim>
				</port>
			</output>
		</layer>
		<layer id="45" name="FirstStageFeatureExtractor/resnet_v1_50/resnet_v1_50/block2/unit_3/bottleneck_v1/conv2/Conv2D" precision="FP32" type="Convolution">
			<data auto_pad="same_upper" dilations="1,1" group="1" kernel="3,3" output="128" pads_begin="1,1" pads_end="1,1" strides="1,1"/>
			<input>
				<port id="0">
					<dim>1</dim>
					<dim>128</dim>
					<dim>75</dim>
					<dim>75</dim>
				</port>
			</input>
			<output>
				<port id="3">
					<dim>1</dim>
					<dim>128</dim>
					<dim>75</dim>
					<dim>75</dim>
				</port>
			</output>
			<blobs>
				<weights offset="3787800" size="589824"/>
				<biases offset="4377624" size="512"/>
			</blobs>
		</layer>
		<layer id="46" name="FirstStageFeatureExtractor/resnet_v1_50/resnet_v1_50/block2/unit_3/bottleneck_v1/conv2/Relu" precision="FP32" type="ReLU">
			<input>
				<port id="0">
					<dim>1</dim>
					<dim>128</dim>
					<dim>75</dim>
					<dim>75</dim>
				</port>
			</input>
			<output>
				<port id="1">
					<dim>1</dim>
					<dim>128</dim>
					<dim>75</dim>
					<dim>75</dim>
				</port>
			</output>
		</layer>
		<layer id="47" name="FirstStageFeatureExtractor/resnet_v1_50/resnet_v1_50/block2/unit_3/bottleneck_v1/conv3/Conv2D" precision="FP32" type="Convolution">
			<data auto_pad="same_upper" dilations="1,1" group="1" kernel="1,1" output="512" pads_begin="0,0" pads_end="0,0" strides="1,1"/>
			<input>
				<port id="0">
					<dim>1</dim>
					<dim>128</dim>
					<dim>75</dim>
					<dim>75</dim>
				</port>
			</input>
			<output>
				<port id="3">
					<dim>1</dim>
					<dim>512</dim>
					<dim>75</dim>
					<dim>75</dim>
				</port>
			</output>
			<blobs>
				<weights offset="4378136" size="262144"/>
				<biases offset="4640280" size="2048"/>
			</blobs>
		</layer>
		<layer id="48" name="FirstStageFeatureExtractor/resnet_v1_50/resnet_v1_50/block2/unit_3/bottleneck_v1/add" precision="FP32" type="Eltwise">
			<data operation="sum"/>
			<input>
				<port id="0">
					<dim>1</dim>
					<dim>512</dim>
					<dim>75</dim>
					<dim>75</dim>
				</port>
				<port id="1">
					<dim>1</dim>
					<dim>512</dim>
					<dim>75</dim>
					<dim>75</dim>
				</port>
			</input>
			<output>
				<port id="2">
					<dim>1</dim>
					<dim>512</dim>
					<dim>75</dim>
					<dim>75</dim>
				</port>
			</output>
		</layer>
		<layer id="49" name="FirstStageFeatureExtractor/resnet_v1_50/resnet_v1_50/block2/unit_3/bottleneck_v1/Relu" precision="FP32" type="ReLU">
			<input>
				<port id="0">
					<dim>1</dim>
					<dim>512</dim>
					<dim>75</dim>
					<dim>75</dim>
				</port>
			</input>
			<output>
				<port id="1">
					<dim>1</dim>
					<dim>512</dim>
					<dim>75</dim>
					<dim>75</dim>
				</port>
			</output>
		</layer>
		<layer id="50" name="FirstStageFeatureExtractor/resnet_v1_50/resnet_v1_50/block2/unit_4/bottleneck_v1/shortcut/MaxPool" precision="FP32" type="Pooling">
			<data auto_pad="same_upper" exclude-pad="true" kernel="1,1" pads_begin="0,0" pads_end="0,0" pool-method="max" strides="2,2"/>
			<input>
				<port id="0">
					<dim>1</dim>
					<dim>512</dim>
					<dim>75</dim>
					<dim>75</dim>
				</port>
			</input>
			<output>
				<port id="1">
					<dim>1</dim>
					<dim>512</dim>
					<dim>38</dim>
					<dim>38</dim>
				</port>
			</output>
		</layer>
		<layer id="51" name="FirstStageFeatureExtractor/resnet_v1_50/resnet_v1_50/block2/unit_4/bottleneck_v1/conv1/Conv2D" precision="FP32" type="Convolution">
			<data auto_pad="same_upper" dilations="1,1" group="1" kernel="1,1" output="128" pads_begin="0,0" pads_end="0,0" strides="1,1"/>
			<input>
				<port id="0">
					<dim>1</dim>
					<dim>512</dim>
					<dim>75</dim>
					<dim>75</dim>
				</port>
			</input>
			<output>
				<port id="3">
					<dim>1</dim>
					<dim>128</dim>
					<dim>75</dim>
					<dim>75</dim>
				</port>
			</output>
			<blobs>
				<weights offset="4642328" size="262144"/>
				<biases offset="4904472" size="512"/>
			</blobs>
		</layer>
		<layer id="52" name="FirstStageFeatureExtractor/resnet_v1_50/resnet_v1_50/block2/unit_4/bottleneck_v1/conv1/Relu" precision="FP32" type="ReLU">
			<input>
				<port id="0">
					<dim>1</dim>
					<dim>128</dim>
					<dim>75</dim>
					<dim>75</dim>
				</port>
			</input>
			<output>
				<port id="1">
					<dim>1</dim>
					<dim>128</dim>
					<dim>75</dim>
					<dim>75</dim>
				</port>
			</output>
		</layer>
		<layer id="53" name="FirstStageFeatureExtractor/resnet_v1_50/resnet_v1_50/block2/unit_4/bottleneck_v1/conv2/Conv2D" precision="FP32" type="Convolution">
			<data dilations="1,1" group="1" kernel="3,3" output="128" pads_begin="1,1" pads_end="1,1" strides="2,2"/>
			<input>
				<port id="0">
					<dim>1</dim>
					<dim>128</dim>
					<dim>75</dim>
					<dim>75</dim>
				</port>
			</input>
			<output>
				<port id="3">
					<dim>1</dim>
					<dim>128</dim>
					<dim>38</dim>
					<dim>38</dim>
				</port>
			</output>
			<blobs>
				<weights offset="4904984" size="589824"/>
				<biases offset="5494808" size="512"/>
			</blobs>
		</layer>
		<layer id="54" name="FirstStageFeatureExtractor/resnet_v1_50/resnet_v1_50/block2/unit_4/bottleneck_v1/conv2/Relu" precision="FP32" type="ReLU">
			<input>
				<port id="0">
					<dim>1</dim>
					<dim>128</dim>
					<dim>38</dim>
					<dim>38</dim>
				</port>
			</input>
			<output>
				<port id="1">
					<dim>1</dim>
					<dim>128</dim>
					<dim>38</dim>
					<dim>38</dim>
				</port>
			</output>
		</layer>
		<layer id="55" name="FirstStageFeatureExtractor/resnet_v1_50/resnet_v1_50/block2/unit_4/bottleneck_v1/conv3/Conv2D" precision="FP32" type="Convolution">
			<data auto_pad="same_upper" dilations="1,1" group="1" kernel="1,1" output="512" pads_begin="0,0" pads_end="0,0" strides="1,1"/>
			<input>
				<port id="0">
					<dim>1</dim>
					<dim>128</dim>
					<dim>38</dim>
					<dim>38</dim>
				</port>
			</input>
			<output>
				<port id="3">
					<dim>1</dim>
					<dim>512</dim>
					<dim>38</dim>
					<dim>38</dim>
				</port>
			</output>
			<blobs>
				<weights offset="5495320" size="262144"/>
				<biases offset="5757464" size="2048"/>
			</blobs>
		</layer>
		<layer id="56" name="FirstStageFeatureExtractor/resnet_v1_50/resnet_v1_50/block2/unit_4/bottleneck_v1/add" precision="FP32" type="Eltwise">
			<data operation="sum"/>
			<input>
				<port id="0">
					<dim>1</dim>
					<dim>512</dim>
					<dim>38</dim>
					<dim>38</dim>
				</port>
				<port id="1">
					<dim>1</dim>
					<dim>512</dim>
					<dim>38</dim>
					<dim>38</dim>
				</port>
			</input>
			<output>
				<port id="2">
					<dim>1</dim>
					<dim>512</dim>
					<dim>38</dim>
					<dim>38</dim>
				</port>
			</output>
		</layer>
		<layer id="57" name="FirstStageFeatureExtractor/resnet_v1_50/resnet_v1_50/block2/unit_4/bottleneck_v1/Relu" precision="FP32" type="ReLU">
			<input>
				<port id="0">
					<dim>1</dim>
					<dim>512</dim>
					<dim>38</dim>
					<dim>38</dim>
				</port>
			</input>
			<output>
				<port id="1">
					<dim>1</dim>
					<dim>512</dim>
					<dim>38</dim>
					<dim>38</dim>
				</port>
			</output>
		</layer>
		<layer id="58" name="FirstStageFeatureExtractor/resnet_v1_50/resnet_v1_50/block3/unit_1/bottleneck_v1/shortcut/Conv2D" precision="FP32" type="Convolution">
			<data auto_pad="same_upper" dilations="1,1" group="1" kernel="1,1" output="1024" pads_begin="0,0" pads_end="0,0" strides="1,1"/>
			<input>
				<port id="0">
					<dim>1</dim>
					<dim>512</dim>
					<dim>38</dim>
					<dim>38</dim>
				</port>
			</input>
			<output>
				<port id="3">
					<dim>1</dim>
					<dim>1024</dim>
					<dim>38</dim>
					<dim>38</dim>
				</port>
			</output>
			<blobs>
				<weights offset="5759512" size="2097152"/>
				<biases offset="7856664" size="4096"/>
			</blobs>
		</layer>
		<layer id="59" name="FirstStageFeatureExtractor/resnet_v1_50/resnet_v1_50/block3/unit_1/bottleneck_v1/conv1/Conv2D" precision="FP32" type="Convolution">
			<data auto_pad="same_upper" dilations="1,1" group="1" kernel="1,1" output="256" pads_begin="0,0" pads_end="0,0" strides="1,1"/>
			<input>
				<port id="0">
					<dim>1</dim>
					<dim>512</dim>
					<dim>38</dim>
					<dim>38</dim>
				</port>
			</input>
			<output>
				<port id="3">
					<dim>1</dim>
					<dim>256</dim>
					<dim>38</dim>
					<dim>38</dim>
				</port>
			</output>
			<blobs>
				<weights offset="7860760" size="524288"/>
				<biases offset="8385048" size="1024"/>
			</blobs>
		</layer>
		<layer id="60" name="FirstStageFeatureExtractor/resnet_v1_50/resnet_v1_50/block3/unit_1/bottleneck_v1/conv1/Relu" precision="FP32" type="ReLU">
			<input>
				<port id="0">
					<dim>1</dim>
					<dim>256</dim>
					<dim>38</dim>
					<dim>38</dim>
				</port>
			</input>
			<output>
				<port id="1">
					<dim>1</dim>
					<dim>256</dim>
					<dim>38</dim>
					<dim>38</dim>
				</port>
			</output>
		</layer>
		<layer id="61" name="FirstStageFeatureExtractor/resnet_v1_50/resnet_v1_50/block3/unit_1/bottleneck_v1/conv2/Conv2D" precision="FP32" type="Convolution">
			<data auto_pad="same_upper" dilations="1,1" group="1" kernel="3,3" output="256" pads_begin="1,1" pads_end="1,1" strides="1,1"/>
			<input>
				<port id="0">
					<dim>1</dim>
					<dim>256</dim>
					<dim>38</dim>
					<dim>38</dim>
				</port>
			</input>
			<output>
				<port id="3">
					<dim>1</dim>
					<dim>256</dim>
					<dim>38</dim>
					<dim>38</dim>
				</port>
			</output>
			<blobs>
				<weights offset="8386072" size="2359296"/>
				<biases offset="10745368" size="1024"/>
			</blobs>
		</layer>
		<layer id="62" name="FirstStageFeatureExtractor/resnet_v1_50/resnet_v1_50/block3/unit_1/bottleneck_v1/conv2/Relu" precision="FP32" type="ReLU">
			<input>
				<port id="0">
					<dim>1</dim>
					<dim>256</dim>
					<dim>38</dim>
					<dim>38</dim>
				</port>
			</input>
			<output>
				<port id="1">
					<dim>1</dim>
					<dim>256</dim>
					<dim>38</dim>
					<dim>38</dim>
				</port>
			</output>
		</layer>
		<layer id="63" name="FirstStageFeatureExtractor/resnet_v1_50/resnet_v1_50/block3/unit_1/bottleneck_v1/conv3/Conv2D" precision="FP32" type="Convolution">
			<data auto_pad="same_upper" dilations="1,1" group="1" kernel="1,1" output="1024" pads_begin="0,0" pads_end="0,0" strides="1,1"/>
			<input>
				<port id="0">
					<dim>1</dim>
					<dim>256</dim>
					<dim>38</dim>
					<dim>38</dim>
				</port>
			</input>
			<output>
				<port id="3">
					<dim>1</dim>
					<dim>1024</dim>
					<dim>38</dim>
					<dim>38</dim>
				</port>
			</output>
			<blobs>
				<weights offset="10746392" size="1048576"/>
				<biases offset="11794968" size="4096"/>
			</blobs>
		</layer>
		<layer id="64" name="FirstStageFeatureExtractor/resnet_v1_50/resnet_v1_50/block3/unit_1/bottleneck_v1/add" precision="FP32" type="Eltwise">
			<data operation="sum"/>
			<input>
				<port id="0">
					<dim>1</dim>
					<dim>1024</dim>
					<dim>38</dim>
					<dim>38</dim>
				</port>
				<port id="1">
					<dim>1</dim>
					<dim>1024</dim>
					<dim>38</dim>
					<dim>38</dim>
				</port>
			</input>
			<output>
				<port id="2">
					<dim>1</dim>
					<dim>1024</dim>
					<dim>38</dim>
					<dim>38</dim>
				</port>
			</output>
		</layer>
		<layer id="65" name="FirstStageFeatureExtractor/resnet_v1_50/resnet_v1_50/block3/unit_1/bottleneck_v1/Relu" precision="FP32" type="ReLU">
			<input>
				<port id="0">
					<dim>1</dim>
					<dim>1024</dim>
					<dim>38</dim>
					<dim>38</dim>
				</port>
			</input>
			<output>
				<port id="1">
					<dim>1</dim>
					<dim>1024</dim>
					<dim>38</dim>
					<dim>38</dim>
				</port>
			</output>
		</layer>
		<layer id="66" name="FirstStageFeatureExtractor/resnet_v1_50/resnet_v1_50/block3/unit_2/bottleneck_v1/conv1/Conv2D" precision="FP32" type="Convolution">
			<data auto_pad="same_upper" dilations="1,1" group="1" kernel="1,1" output="256" pads_begin="0,0" pads_end="0,0" strides="1,1"/>
			<input>
				<port id="0">
					<dim>1</dim>
					<dim>1024</dim>
					<dim>38</dim>
					<dim>38</dim>
				</port>
			</input>
			<output>
				<port id="3">
					<dim>1</dim>
					<dim>256</dim>
					<dim>38</dim>
					<dim>38</dim>
				</port>
			</output>
			<blobs>
				<weights offset="11799064" size="1048576"/>
				<biases offset="12847640" size="1024"/>
			</blobs>
		</layer>
		<layer id="67" name="FirstStageFeatureExtractor/resnet_v1_50/resnet_v1_50/block3/unit_2/bottleneck_v1/conv1/Relu" precision="FP32" type="ReLU">
			<input>
				<port id="0">
					<dim>1</dim>
					<dim>256</dim>
					<dim>38</dim>
					<dim>38</dim>
				</port>
			</input>
			<output>
				<port id="1">
					<dim>1</dim>
					<dim>256</dim>
					<dim>38</dim>
					<dim>38</dim>
				</port>
			</output>
		</layer>
		<layer id="68" name="FirstStageFeatureExtractor/resnet_v1_50/resnet_v1_50/block3/unit_2/bottleneck_v1/conv2/Conv2D" precision="FP32" type="Convolution">
			<data auto_pad="same_upper" dilations="1,1" group="1" kernel="3,3" output="256" pads_begin="1,1" pads_end="1,1" strides="1,1"/>
			<input>
				<port id="0">
					<dim>1</dim>
					<dim>256</dim>
					<dim>38</dim>
					<dim>38</dim>
				</port>
			</input>
			<output>
				<port id="3">
					<dim>1</dim>
					<dim>256</dim>
					<dim>38</dim>
					<dim>38</dim>
				</port>
			</output>
			<blobs>
				<weights offset="12848664" size="2359296"/>
				<biases offset="15207960" size="1024"/>
			</blobs>
		</layer>
		<layer id="69" name="FirstStageFeatureExtractor/resnet_v1_50/resnet_v1_50/block3/unit_2/bottleneck_v1/conv2/Relu" precision="FP32" type="ReLU">
			<input>
				<port id="0">
					<dim>1</dim>
					<dim>256</dim>
					<dim>38</dim>
					<dim>38</dim>
				</port>
			</input>
			<output>
				<port id="1">
					<dim>1</dim>
					<dim>256</dim>
					<dim>38</dim>
					<dim>38</dim>
				</port>
			</output>
		</layer>
		<layer id="70" name="FirstStageFeatureExtractor/resnet_v1_50/resnet_v1_50/block3/unit_2/bottleneck_v1/conv3/Conv2D" precision="FP32" type="Convolution">
			<data auto_pad="same_upper" dilations="1,1" group="1" kernel="1,1" output="1024" pads_begin="0,0" pads_end="0,0" strides="1,1"/>
			<input>
				<port id="0">
					<dim>1</dim>
					<dim>256</dim>
					<dim>38</dim>
					<dim>38</dim>
				</port>
			</input>
			<output>
				<port id="3">
					<dim>1</dim>
					<dim>1024</dim>
					<dim>38</dim>
					<dim>38</dim>
				</port>
			</output>
			<blobs>
				<weights offset="15208984" size="1048576"/>
				<biases offset="16257560" size="4096"/>
			</blobs>
		</layer>
		<layer id="71" name="FirstStageFeatureExtractor/resnet_v1_50/resnet_v1_50/block3/unit_2/bottleneck_v1/add" precision="FP32" type="Eltwise">
			<data operation="sum"/>
			<input>
				<port id="0">
					<dim>1</dim>
					<dim>1024</dim>
					<dim>38</dim>
					<dim>38</dim>
				</port>
				<port id="1">
					<dim>1</dim>
					<dim>1024</dim>
					<dim>38</dim>
					<dim>38</dim>
				</port>
			</input>
			<output>
				<port id="2">
					<dim>1</dim>
					<dim>1024</dim>
					<dim>38</dim>
					<dim>38</dim>
				</port>
			</output>
		</layer>
		<layer id="72" name="FirstStageFeatureExtractor/resnet_v1_50/resnet_v1_50/block3/unit_2/bottleneck_v1/Relu" precision="FP32" type="ReLU">
			<input>
				<port id="0">
					<dim>1</dim>
					<dim>1024</dim>
					<dim>38</dim>
					<dim>38</dim>
				</port>
			</input>
			<output>
				<port id="1">
					<dim>1</dim>
					<dim>1024</dim>
					<dim>38</dim>
					<dim>38</dim>
				</port>
			</output>
		</layer>
		<layer id="73" name="FirstStageFeatureExtractor/resnet_v1_50/resnet_v1_50/block3/unit_3/bottleneck_v1/conv1/Conv2D" precision="FP32" type="Convolution">
			<data auto_pad="same_upper" dilations="1,1" group="1" kernel="1,1" output="256" pads_begin="0,0" pads_end="0,0" strides="1,1"/>
			<input>
				<port id="0">
					<dim>1</dim>
					<dim>1024</dim>
					<dim>38</dim>
					<dim>38</dim>
				</port>
			</input>
			<output>
				<port id="3">
					<dim>1</dim>
					<dim>256</dim>
					<dim>38</dim>
					<dim>38</dim>
				</port>
			</output>
			<blobs>
				<weights offset="16261656" size="1048576"/>
				<biases offset="17310232" size="1024"/>
			</blobs>
		</layer>
		<layer id="74" name="FirstStageFeatureExtractor/resnet_v1_50/resnet_v1_50/block3/unit_3/bottleneck_v1/conv1/Relu" precision="FP32" type="ReLU">
			<input>
				<port id="0">
					<dim>1</dim>
					<dim>256</dim>
					<dim>38</dim>
					<dim>38</dim>
				</port>
			</input>
			<output>
				<port id="1">
					<dim>1</dim>
					<dim>256</dim>
					<dim>38</dim>
					<dim>38</dim>
				</port>
			</output>
		</layer>
		<layer id="75" name="FirstStageFeatureExtractor/resnet_v1_50/resnet_v1_50/block3/unit_3/bottleneck_v1/conv2/Conv2D" precision="FP32" type="Convolution">
			<data auto_pad="same_upper" dilations="1,1" group="1" kernel="3,3" output="256" pads_begin="1,1" pads_end="1,1" strides="1,1"/>
			<input>
				<port id="0">
					<dim>1</dim>
					<dim>256</dim>
					<dim>38</dim>
					<dim>38</dim>
				</port>
			</input>
			<output>
				<port id="3">
					<dim>1</dim>
					<dim>256</dim>
					<dim>38</dim>
					<dim>38</dim>
				</port>
			</output>
			<blobs>
				<weights offset="17311256" size="2359296"/>
				<biases offset="19670552" size="1024"/>
			</blobs>
		</layer>
		<layer id="76" name="FirstStageFeatureExtractor/resnet_v1_50/resnet_v1_50/block3/unit_3/bottleneck_v1/conv2/Relu" precision="FP32" type="ReLU">
			<input>
				<port id="0">
					<dim>1</dim>
					<dim>256</dim>
					<dim>38</dim>
					<dim>38</dim>
				</port>
			</input>
			<output>
				<port id="1">
					<dim>1</dim>
					<dim>256</dim>
					<dim>38</dim>
					<dim>38</dim>
				</port>
			</output>
		</layer>
		<layer id="77" name="FirstStageFeatureExtractor/resnet_v1_50/resnet_v1_50/block3/unit_3/bottleneck_v1/conv3/Conv2D" precision="FP32" type="Convolution">
			<data auto_pad="same_upper" dilations="1,1" group="1" kernel="1,1" output="1024" pads_begin="0,0" pads_end="0,0" strides="1,1"/>
			<input>
				<port id="0">
					<dim>1</dim>
					<dim>256</dim>
					<dim>38</dim>
					<dim>38</dim>
				</port>
			</input>
			<output>
				<port id="3">
					<dim>1</dim>
					<dim>1024</dim>
					<dim>38</dim>
					<dim>38</dim>
				</port>
			</output>
			<blobs>
				<weights offset="19671576" size="1048576"/>
				<biases offset="20720152" size="4096"/>
			</blobs>
		</layer>
		<layer id="78" name="FirstStageFeatureExtractor/resnet_v1_50/resnet_v1_50/block3/unit_3/bottleneck_v1/add" precision="FP32" type="Eltwise">
			<data operation="sum"/>
			<input>
				<port id="0">
					<dim>1</dim>
					<dim>1024</dim>
					<dim>38</dim>
					<dim>38</dim>
				</port>
				<port id="1">
					<dim>1</dim>
					<dim>1024</dim>
					<dim>38</dim>
					<dim>38</dim>
				</port>
			</input>
			<output>
				<port id="2">
					<dim>1</dim>
					<dim>1024</dim>
					<dim>38</dim>
					<dim>38</dim>
				</port>
			</output>
		</layer>
		<layer id="79" name="FirstStageFeatureExtractor/resnet_v1_50/resnet_v1_50/block3/unit_3/bottleneck_v1/Relu" precision="FP32" type="ReLU">
			<input>
				<port id="0">
					<dim>1</dim>
					<dim>1024</dim>
					<dim>38</dim>
					<dim>38</dim>
				</port>
			</input>
			<output>
				<port id="1">
					<dim>1</dim>
					<dim>1024</dim>
					<dim>38</dim>
					<dim>38</dim>
				</port>
			</output>
		</layer>
		<layer id="80" name="FirstStageFeatureExtractor/resnet_v1_50/resnet_v1_50/block3/unit_4/bottleneck_v1/conv1/Conv2D" precision="FP32" type="Convolution">
			<data auto_pad="same_upper" dilations="1,1" group="1" kernel="1,1" output="256" pads_begin="0,0" pads_end="0,0" strides="1,1"/>
			<input>
				<port id="0">
					<dim>1</dim>
					<dim>1024</dim>
					<dim>38</dim>
					<dim>38</dim>
				</port>
			</input>
			<output>
				<port id="3">
					<dim>1</dim>
					<dim>256</dim>
					<dim>38</dim>
					<dim>38</dim>
				</port>
			</output>
			<blobs>
				<weights offset="20724248" size="1048576"/>
				<biases offset="21772824" size="1024"/>
			</blobs>
		</layer>
		<layer id="81" name="FirstStageFeatureExtractor/resnet_v1_50/resnet_v1_50/block3/unit_4/bottleneck_v1/conv1/Relu" precision="FP32" type="ReLU">
			<input>
				<port id="0">
					<dim>1</dim>
					<dim>256</dim>
					<dim>38</dim>
					<dim>38</dim>
				</port>
			</input>
			<output>
				<port id="1">
					<dim>1</dim>
					<dim>256</dim>
					<dim>38</dim>
					<dim>38</dim>
				</port>
			</output>
		</layer>
		<layer id="82" name="FirstStageFeatureExtractor/resnet_v1_50/resnet_v1_50/block3/unit_4/bottleneck_v1/conv2/Conv2D" precision="FP32" type="Convolution">
			<data auto_pad="same_upper" dilations="1,1" group="1" kernel="3,3" output="256" pads_begin="1,1" pads_end="1,1" strides="1,1"/>
			<input>
				<port id="0">
					<dim>1</dim>
					<dim>256</dim>
					<dim>38</dim>
					<dim>38</dim>
				</port>
			</input>
			<output>
				<port id="3">
					<dim>1</dim>
					<dim>256</dim>
					<dim>38</dim>
					<dim>38</dim>
				</port>
			</output>
			<blobs>
				<weights offset="21773848" size="2359296"/>
				<biases offset="24133144" size="1024"/>
			</blobs>
		</layer>
		<layer id="83" name="FirstStageFeatureExtractor/resnet_v1_50/resnet_v1_50/block3/unit_4/bottleneck_v1/conv2/Relu" precision="FP32" type="ReLU">
			<input>
				<port id="0">
					<dim>1</dim>
					<dim>256</dim>
					<dim>38</dim>
					<dim>38</dim>
				</port>
			</input>
			<output>
				<port id="1">
					<dim>1</dim>
					<dim>256</dim>
					<dim>38</dim>
					<dim>38</dim>
				</port>
			</output>
		</layer>
		<layer id="84" name="FirstStageFeatureExtractor/resnet_v1_50/resnet_v1_50/block3/unit_4/bottleneck_v1/conv3/Conv2D" precision="FP32" type="Convolution">
			<data auto_pad="same_upper" dilations="1,1" group="1" kernel="1,1" output="1024" pads_begin="0,0" pads_end="0,0" strides="1,1"/>
			<input>
				<port id="0">
					<dim>1</dim>
					<dim>256</dim>
					<dim>38</dim>
					<dim>38</dim>
				</port>
			</input>
			<output>
				<port id="3">
					<dim>1</dim>
					<dim>1024</dim>
					<dim>38</dim>
					<dim>38</dim>
				</port>
			</output>
			<blobs>
				<weights offset="24134168" size="1048576"/>
				<biases offset="25182744" size="4096"/>
			</blobs>
		</layer>
		<layer id="85" name="FirstStageFeatureExtractor/resnet_v1_50/resnet_v1_50/block3/unit_4/bottleneck_v1/add" precision="FP32" type="Eltwise">
			<data operation="sum"/>
			<input>
				<port id="0">
					<dim>1</dim>
					<dim>1024</dim>
					<dim>38</dim>
					<dim>38</dim>
				</port>
				<port id="1">
					<dim>1</dim>
					<dim>1024</dim>
					<dim>38</dim>
					<dim>38</dim>
				</port>
			</input>
			<output>
				<port id="2">
					<dim>1</dim>
					<dim>1024</dim>
					<dim>38</dim>
					<dim>38</dim>
				</port>
			</output>
		</layer>
		<layer id="86" name="FirstStageFeatureExtractor/resnet_v1_50/resnet_v1_50/block3/unit_4/bottleneck_v1/Relu" precision="FP32" type="ReLU">
			<input>
				<port id="0">
					<dim>1</dim>
					<dim>1024</dim>
					<dim>38</dim>
					<dim>38</dim>
				</port>
			</input>
			<output>
				<port id="1">
					<dim>1</dim>
					<dim>1024</dim>
					<dim>38</dim>
					<dim>38</dim>
				</port>
			</output>
		</layer>
		<layer id="87" name="FirstStageFeatureExtractor/resnet_v1_50/resnet_v1_50/block3/unit_5/bottleneck_v1/conv1/Conv2D" precision="FP32" type="Convolution">
			<data auto_pad="same_upper" dilations="1,1" group="1" kernel="1,1" output="256" pads_begin="0,0" pads_end="0,0" strides="1,1"/>
			<input>
				<port id="0">
					<dim>1</dim>
					<dim>1024</dim>
					<dim>38</dim>
					<dim>38</dim>
				</port>
			</input>
			<output>
				<port id="3">
					<dim>1</dim>
					<dim>256</dim>
					<dim>38</dim>
					<dim>38</dim>
				</port>
			</output>
			<blobs>
				<weights offset="25186840" size="1048576"/>
				<biases offset="26235416" size="1024"/>
			</blobs>
		</layer>
		<layer id="88" name="FirstStageFeatureExtractor/resnet_v1_50/resnet_v1_50/block3/unit_5/bottleneck_v1/conv1/Relu" precision="FP32" type="ReLU">
			<input>
				<port id="0">
					<dim>1</dim>
					<dim>256</dim>
					<dim>38</dim>
					<dim>38</dim>
				</port>
			</input>
			<output>
				<port id="1">
					<dim>1</dim>
					<dim>256</dim>
					<dim>38</dim>
					<dim>38</dim>
				</port>
			</output>
		</layer>
		<layer id="89" name="FirstStageFeatureExtractor/resnet_v1_50/resnet_v1_50/block3/unit_5/bottleneck_v1/conv2/Conv2D" precision="FP32" type="Convolution">
			<data auto_pad="same_upper" dilations="1,1" group="1" kernel="3,3" output="256" pads_begin="1,1" pads_end="1,1" strides="1,1"/>
			<input>
				<port id="0">
					<dim>1</dim>
					<dim>256</dim>
					<dim>38</dim>
					<dim>38</dim>
				</port>
			</input>
			<output>
				<port id="3">
					<dim>1</dim>
					<dim>256</dim>
					<dim>38</dim>
					<dim>38</dim>
				</port>
			</output>
			<blobs>
				<weights offset="26236440" size="2359296"/>
				<biases offset="28595736" size="1024"/>
			</blobs>
		</layer>
		<layer id="90" name="FirstStageFeatureExtractor/resnet_v1_50/resnet_v1_50/block3/unit_5/bottleneck_v1/conv2/Relu" precision="FP32" type="ReLU">
			<input>
				<port id="0">
					<dim>1</dim>
					<dim>256</dim>
					<dim>38</dim>
					<dim>38</dim>
				</port>
			</input>
			<output>
				<port id="1">
					<dim>1</dim>
					<dim>256</dim>
					<dim>38</dim>
					<dim>38</dim>
				</port>
			</output>
		</layer>
		<layer id="91" name="FirstStageFeatureExtractor/resnet_v1_50/resnet_v1_50/block3/unit_5/bottleneck_v1/conv3/Conv2D" precision="FP32" type="Convolution">
			<data auto_pad="same_upper" dilations="1,1" group="1" kernel="1,1" output="1024" pads_begin="0,0" pads_end="0,0" strides="1,1"/>
			<input>
				<port id="0">
					<dim>1</dim>
					<dim>256</dim>
					<dim>38</dim>
					<dim>38</dim>
				</port>
			</input>
			<output>
				<port id="3">
					<dim>1</dim>
					<dim>1024</dim>
					<dim>38</dim>
					<dim>38</dim>
				</port>
			</output>
			<blobs>
				<weights offset="28596760" size="1048576"/>
				<biases offset="29645336" size="4096"/>
			</blobs>
		</layer>
		<layer id="92" name="FirstStageFeatureExtractor/resnet_v1_50/resnet_v1_50/block3/unit_5/bottleneck_v1/add" precision="FP32" type="Eltwise">
			<data operation="sum"/>
			<input>
				<port id="0">
					<dim>1</dim>
					<dim>1024</dim>
					<dim>38</dim>
					<dim>38</dim>
				</port>
				<port id="1">
					<dim>1</dim>
					<dim>1024</dim>
					<dim>38</dim>
					<dim>38</dim>
				</port>
			</input>
			<output>
				<port id="2">
					<dim>1</dim>
					<dim>1024</dim>
					<dim>38</dim>
					<dim>38</dim>
				</port>
			</output>
		</layer>
		<layer id="93" name="FirstStageFeatureExtractor/resnet_v1_50/resnet_v1_50/block3/unit_5/bottleneck_v1/Relu" precision="FP32" type="ReLU">
			<input>
				<port id="0">
					<dim>1</dim>
					<dim>1024</dim>
					<dim>38</dim>
					<dim>38</dim>
				</port>
			</input>
			<output>
				<port id="1">
					<dim>1</dim>
					<dim>1024</dim>
					<dim>38</dim>
					<dim>38</dim>
				</port>
			</output>
		</layer>
		<layer id="94" name="FirstStageFeatureExtractor/resnet_v1_50/resnet_v1_50/block3/unit_6/bottleneck_v1/conv1/Conv2D" precision="FP32" type="Convolution">
			<data auto_pad="same_upper" dilations="1,1" group="1" kernel="1,1" output="256" pads_begin="0,0" pads_end="0,0" strides="1,1"/>
			<input>
				<port id="0">
					<dim>1</dim>
					<dim>1024</dim>
					<dim>38</dim>
					<dim>38</dim>
				</port>
			</input>
			<output>
				<port id="3">
					<dim>1</dim>
					<dim>256</dim>
					<dim>38</dim>
					<dim>38</dim>
				</port>
			</output>
			<blobs>
				<weights offset="29649432" size="1048576"/>
				<biases offset="30698008" size="1024"/>
			</blobs>
		</layer>
		<layer id="95" name="FirstStageFeatureExtractor/resnet_v1_50/resnet_v1_50/block3/unit_6/bottleneck_v1/conv1/Relu" precision="FP32" type="ReLU">
			<input>
				<port id="0">
					<dim>1</dim>
					<dim>256</dim>
					<dim>38</dim>
					<dim>38</dim>
				</port>
			</input>
			<output>
				<port id="1">
					<dim>1</dim>
					<dim>256</dim>
					<dim>38</dim>
					<dim>38</dim>
				</port>
			</output>
		</layer>
		<layer id="96" name="FirstStageFeatureExtractor/resnet_v1_50/resnet_v1_50/block3/unit_6/bottleneck_v1/conv2/Conv2D" precision="FP32" type="Convolution">
			<data auto_pad="same_upper" dilations="1,1" group="1" kernel="3,3" output="256" pads_begin="1,1" pads_end="1,1" strides="1,1"/>
			<input>
				<port id="0">
					<dim>1</dim>
					<dim>256</dim>
					<dim>38</dim>
					<dim>38</dim>
				</port>
			</input>
			<output>
				<port id="3">
					<dim>1</dim>
					<dim>256</dim>
					<dim>38</dim>
					<dim>38</dim>
				</port>
			</output>
			<blobs>
				<weights offset="30699032" size="2359296"/>
				<biases offset="33058328" size="1024"/>
			</blobs>
		</layer>
		<layer id="97" name="FirstStageFeatureExtractor/resnet_v1_50/resnet_v1_50/block3/unit_6/bottleneck_v1/conv2/Relu" precision="FP32" type="ReLU">
			<input>
				<port id="0">
					<dim>1</dim>
					<dim>256</dim>
					<dim>38</dim>
					<dim>38</dim>
				</port>
			</input>
			<output>
				<port id="1">
					<dim>1</dim>
					<dim>256</dim>
					<dim>38</dim>
					<dim>38</dim>
				</port>
			</output>
		</layer>
		<layer id="98" name="FirstStageFeatureExtractor/resnet_v1_50/resnet_v1_50/block3/unit_6/bottleneck_v1/conv3/Conv2D" precision="FP32" type="Convolution">
			<data auto_pad="same_upper" dilations="1,1" group="1" kernel="1,1" output="1024" pads_begin="0,0" pads_end="0,0" strides="1,1"/>
			<input>
				<port id="0">
					<dim>1</dim>
					<dim>256</dim>
					<dim>38</dim>
					<dim>38</dim>
				</port>
			</input>
			<output>
				<port id="3">
					<dim>1</dim>
					<dim>1024</dim>
					<dim>38</dim>
					<dim>38</dim>
				</port>
			</output>
			<blobs>
				<weights offset="33059352" size="1048576"/>
				<biases offset="34107928" size="4096"/>
			</blobs>
		</layer>
		<layer id="99" name="FirstStageFeatureExtractor/resnet_v1_50/resnet_v1_50/block3/unit_6/bottleneck_v1/add" precision="FP32" type="Eltwise">
			<data operation="sum"/>
			<input>
				<port id="0">
					<dim>1</dim>
					<dim>1024</dim>
					<dim>38</dim>
					<dim>38</dim>
				</port>
				<port id="1">
					<dim>1</dim>
					<dim>1024</dim>
					<dim>38</dim>
					<dim>38</dim>
				</port>
			</input>
			<output>
				<port id="2">
					<dim>1</dim>
					<dim>1024</dim>
					<dim>38</dim>
					<dim>38</dim>
				</port>
			</output>
		</layer>
		<layer id="100" name="FirstStageFeatureExtractor/resnet_v1_50/resnet_v1_50/block3/unit_6/bottleneck_v1/Relu" precision="FP32" type="ReLU">
			<input>
				<port id="0">
					<dim>1</dim>
					<dim>1024</dim>
					<dim>38</dim>
					<dim>38</dim>
				</port>
			</input>
			<output>
				<port id="1">
					<dim>1</dim>
					<dim>1024</dim>
					<dim>38</dim>
					<dim>38</dim>
				</port>
			</output>
		</layer>
		<layer id="101" name="Conv/Conv2D" precision="FP32" type="Convolution">
			<data auto_pad="same_upper" dilations="1,1" group="1" kernel="3,3" output="512" pads_begin="1,1" pads_end="1,1" strides="1,1"/>
			<input>
				<port id="0">
					<dim>1</dim>
					<dim>1024</dim>
					<dim>38</dim>
					<dim>38</dim>
				</port>
			</input>
			<output>
				<port id="3">
					<dim>1</dim>
					<dim>512</dim>
					<dim>38</dim>
					<dim>38</dim>
				</port>
			</output>
			<blobs>
				<weights offset="34112024" size="18874368"/>
				<biases offset="52986392" size="2048"/>
			</blobs>
		</layer>
		<layer id="102" name="Conv/Relu6" precision="FP32" type="Clamp">
			<data max="6" min="0"/>
			<input>
				<port id="0">
					<dim>1</dim>
					<dim>512</dim>
					<dim>38</dim>
					<dim>38</dim>
				</port>
			</input>
			<output>
				<port id="1">
					<dim>1</dim>
					<dim>512</dim>
					<dim>38</dim>
					<dim>38</dim>
				</port>
			</output>
		</layer>
		<layer id="103" name="FirstStageBoxPredictor/ClassPredictor/Conv2D" precision="FP32" type="Convolution">
			<data auto_pad="same_upper" dilations="1,1" group="1" kernel="1,1" output="24" pads_begin="0,0" pads_end="0,0" strides="1,1"/>
			<input>
				<port id="0">
					<dim>1</dim>
					<dim>512</dim>
					<dim>38</dim>
					<dim>38</dim>
				</port>
			</input>
			<output>
				<port id="3">
					<dim>1</dim>
					<dim>24</dim>
					<dim>38</dim>
					<dim>38</dim>
				</port>
			</output>
			<blobs>
				<weights offset="52988440" size="49152"/>
				<biases offset="53037592" size="96"/>
			</blobs>
		</layer>
		<layer id="104" name="predictions/Reshape/value/Output_0/Data__const" precision="I32" type="Const">
			<output>
				<port id="1">
					<dim>4</dim>
				</port>
			</output>
			<blobs>
				<custom offset="53037688" size="16"/>
			</blobs>
		</layer>
		<layer id="105" name="predictions/Reshape" precision="FP32" type="Reshape">
			<input>
				<port id="0">
					<dim>1</dim>
					<dim>24</dim>
					<dim>38</dim>
					<dim>38</dim>
				</port>
				<port id="1">
					<dim>4</dim>
				</port>
			</input>
			<output>
				<port id="2">
					<dim>1</dim>
					<dim>12</dim>
					<dim>2</dim>
					<dim>1444</dim>
				</port>
			</output>
		</layer>
		<layer id="106" name="predictions/Reshape/Softmax" precision="FP32" type="SoftMax">
			<data axis="2"/>
			<input>
				<port id="0">
					<dim>1</dim>
					<dim>12</dim>
					<dim>2</dim>
					<dim>1444</dim>
				</port>
			</input>
			<output>
				<port id="1">
					<dim>1</dim>
					<dim>12</dim>
					<dim>2</dim>
					<dim>1444</dim>
				</port>
			</output>
		</layer>
		<layer id="107" name="predictions/Reshape/Softmax/Transpose" precision="FP32" type="Permute">
			<data order="0,2,1,3"/>
			<input>
				<port id="0">
					<dim>1</dim>
					<dim>12</dim>
					<dim>2</dim>
					<dim>1444</dim>
				</port>
			</input>
			<output>
				<port id="1">
					<dim>1</dim>
					<dim>2</dim>
					<dim>12</dim>
					<dim>1444</dim>
				</port>
			</output>
		</layer>
		<layer id="108" name="19278_const" precision="I32" type="Const">
			<output>
				<port id="1">
					<dim>4</dim>
				</port>
			</output>
			<blobs>
				<custom offset="53037704" size="16"/>
			</blobs>
		</layer>
		<layer id="109" name="Reshape_Transpose_Class" precision="FP32" type="Reshape">
			<input>
				<port id="0">
					<dim>1</dim>
					<dim>2</dim>
					<dim>12</dim>
					<dim>1444</dim>
				</port>
				<port id="1">
					<dim>4</dim>
				</port>
			</input>
			<output>
				<port id="2">
					<dim>1</dim>
					<dim>24</dim>
					<dim>38</dim>
					<dim>38</dim>
				</port>
			</output>
		</layer>
		<layer id="110" name="FirstStageBoxPredictor/BoxEncodingPredictor/Conv2D" precision="FP32" type="Convolution">
			<data auto_pad="same_upper" dilations="1,1" group="1" kernel="1,1" output="48" pads_begin="0,0" pads_end="0,0" strides="1,1"/>
			<input>
				<port id="0">
					<dim>1</dim>
					<dim>512</dim>
					<dim>38</dim>
					<dim>38</dim>
				</port>
			</input>
			<output>
				<port id="3">
					<dim>1</dim>
					<dim>48</dim>
					<dim>38</dim>
					<dim>38</dim>
				</port>
			</output>
			<blobs>
				<weights offset="53037720" size="98304"/>
				<biases offset="53136024" size="192"/>
			</blobs>
		</layer>
		<layer id="111" name="image_info" precision="FP32" type="Input">
			<output>
				<port id="0">
					<dim>1</dim>
					<dim>3</dim>
				</port>
			</output>
		</layer>
		<layer id="112" name="proposals" precision="FP32" type="Proposal">
			<data base_size="256" box_coordinate_scale="10.0" box_size_scale="5.0" clip_after_nms="0" clip_before_nms="1" feat_stride="16" for_deformable="0" framework="tensorflow" min_size="1" nms_thresh="0.699999988079" normalize="1" post_nms_topn="100" pre_nms_topn="2147483647" ratio="0.5,1.0,2.0" scale="0.25,0.5,1.0,2.0"/>
			<input>
				<port id="0">
					<dim>1</dim>
					<dim>24</dim>
					<dim>38</dim>
					<dim>38</dim>
				</port>
				<port id="1">
					<dim>1</dim>
					<dim>48</dim>
					<dim>38</dim>
					<dim>38</dim>
				</port>
				<port id="2">
					<dim>1</dim>
					<dim>3</dim>
				</port>
			</input>
			<output>
				<port id="3">
					<dim>100</dim>
					<dim>5</dim>
				</port>
			</output>
		</layer>
		<layer id="113" name="19286_const" precision="I32" type="Const">
			<output>
				<port id="1">
					<dim>4</dim>
				</port>
			</output>
			<blobs>
				<custom offset="53136216" size="16"/>
			</blobs>
		</layer>
		<layer id="114" name="proposals/reshape_4d" precision="FP32" type="Reshape">
			<input>
				<port id="0">
					<dim>100</dim>
					<dim>5</dim>
				</port>
				<port id="1">
					<dim>4</dim>
				</port>
			</input>
			<output>
				<port id="2">
					<dim>100</dim>
					<dim>5</dim>
					<dim>1</dim>
					<dim>1</dim>
				</port>
			</output>
		</layer>
		<layer id="115" name="proposals/conv" precision="FP32" type="Convolution">
			<data dilations="1,1" group="1" kernel="1,1" output="5" pads_begin="0,0" pads_end="0,0" strides="1,1"/>
			<input>
				<port id="0">
					<dim>100</dim>
					<dim>5</dim>
					<dim>1</dim>
					<dim>1</dim>
				</port>
			</input>
			<output>
				<port id="2">
					<dim>100</dim>
					<dim>5</dim>
					<dim>1</dim>
					<dim>1</dim>
				</port>
			</output>
			<blobs>
				<weights offset="53136232" size="100"/>
			</blobs>
		</layer>
		<layer id="116" name="reshape_swap_proposals_2d/value/Output_0/Data__const" precision="I32" type="Const">
			<output>
				<port id="1">
					<dim>2</dim>
				</port>
			</output>
			<blobs>
				<custom offset="53136332" size="8"/>
			</blobs>
		</layer>
		<layer id="117" name="reshape_swap_proposals_2d" precision="FP32" type="Reshape">
			<input>
				<port id="0">
					<dim>100</dim>
					<dim>5</dim>
					<dim>1</dim>
					<dim>1</dim>
				</port>
				<port id="1">
					<dim>2</dim>
				</port>
			</input>
			<output>
				<port id="2">
					<dim>100</dim>
					<dim>5</dim>
				</port>
			</output>
		</layer>
		<layer id="118" name="CropAndResize" precision="FP32" type="ROIPooling">
			<data method="bilinear" pooled_h="14" pooled_w="14" spatial_scale="1"/>
			<input>
				<port id="0">
					<dim>1</dim>
					<dim>1024</dim>
					<dim>38</dim>
					<dim>38</dim>
				</port>
				<port id="1">
					<dim>100</dim>
					<dim>5</dim>
				</port>
			</input>
			<output>
				<port id="2">
					<dim>100</dim>
					<dim>1024</dim>
					<dim>14</dim>
					<dim>14</dim>
				</port>
			</output>
		</layer>
		<layer id="119" name="MaxPool2D/MaxPool" precision="FP32" type="Pooling">
			<data auto_pad="valid" exclude-pad="true" kernel="2,2" pads_begin="0,0" pads_end="0,0" pool-method="max" strides="2,2"/>
			<input>
				<port id="0">
					<dim>100</dim>
					<dim>1024</dim>
					<dim>14</dim>
					<dim>14</dim>
				</port>
			</input>
			<output>
				<port id="1">
					<dim>100</dim>
					<dim>1024</dim>
					<dim>7</dim>
					<dim>7</dim>
				</port>
			</output>
		</layer>
		<layer id="120" name="SecondStageFeatureExtractor/resnet_v1_50/block4/unit_1/bottleneck_v1/shortcut/Conv2D" precision="FP32" type="Convolution">
			<data auto_pad="same_upper" dilations="1,1" group="1" kernel="1,1" output="2048" pads_begin="0,0" pads_end="0,0" strides="1,1"/>
			<input>
				<port id="0">
					<dim>100</dim>
					<dim>1024</dim>
					<dim>7</dim>
					<dim>7</dim>
				</port>
			</input>
			<output>
				<port id="3">
					<dim>100</dim>
					<dim>2048</dim>
					<dim>7</dim>
					<dim>7</dim>
				</port>
			</output>
			<blobs>
				<weights offset="53136340" size="8388608"/>
				<biases offset="61524948" size="8192"/>
			</blobs>
		</layer>
		<layer id="121" name="SecondStageFeatureExtractor/resnet_v1_50/block4/unit_1/bottleneck_v1/conv1/Conv2D" precision="FP32" type="Convolution">
			<data auto_pad="same_upper" dilations="1,1" group="1" kernel="1,1" output="512" pads_begin="0,0" pads_end="0,0" strides="1,1"/>
			<input>
				<port id="0">
					<dim>100</dim>
					<dim>1024</dim>
					<dim>7</dim>
					<dim>7</dim>
				</port>
			</input>
			<output>
				<port id="3">
					<dim>100</dim>
					<dim>512</dim>
					<dim>7</dim>
					<dim>7</dim>
				</port>
			</output>
			<blobs>
				<weights offset="61533140" size="2097152"/>
				<biases offset="63630292" size="2048"/>
			</blobs>
		</layer>
		<layer id="122" name="SecondStageFeatureExtractor/resnet_v1_50/block4/unit_1/bottleneck_v1/conv1/Relu" precision="FP32" type="ReLU">
			<input>
				<port id="0">
					<dim>100</dim>
					<dim>512</dim>
					<dim>7</dim>
					<dim>7</dim>
				</port>
			</input>
			<output>
				<port id="1">
					<dim>100</dim>
					<dim>512</dim>
					<dim>7</dim>
					<dim>7</dim>
				</port>
			</output>
		</layer>
		<layer id="123" name="SecondStageFeatureExtractor/resnet_v1_50/block4/unit_1/bottleneck_v1/conv2/Conv2D" precision="FP32" type="Convolution">
			<data auto_pad="same_upper" dilations="1,1" group="1" kernel="3,3" output="512" pads_begin="1,1" pads_end="1,1" strides="1,1"/>
			<input>
				<port id="0">
					<dim>100</dim>
					<dim>512</dim>
					<dim>7</dim>
					<dim>7</dim>
				</port>
			</input>
			<output>
				<port id="3">
					<dim>100</dim>
					<dim>512</dim>
					<dim>7</dim>
					<dim>7</dim>
				</port>
			</output>
			<blobs>
				<weights offset="63632340" size="9437184"/>
				<biases offset="73069524" size="2048"/>
			</blobs>
		</layer>
		<layer id="124" name="SecondStageFeatureExtractor/resnet_v1_50/block4/unit_1/bottleneck_v1/conv2/Relu" precision="FP32" type="ReLU">
			<input>
				<port id="0">
					<dim>100</dim>
					<dim>512</dim>
					<dim>7</dim>
					<dim>7</dim>
				</port>
			</input>
			<output>
				<port id="1">
					<dim>100</dim>
					<dim>512</dim>
					<dim>7</dim>
					<dim>7</dim>
				</port>
			</output>
		</layer>
		<layer id="125" name="SecondStageFeatureExtractor/resnet_v1_50/block4/unit_1/bottleneck_v1/conv3/Conv2D" precision="FP32" type="Convolution">
			<data auto_pad="same_upper" dilations="1,1" group="1" kernel="1,1" output="2048" pads_begin="0,0" pads_end="0,0" strides="1,1"/>
			<input>
				<port id="0">
					<dim>100</dim>
					<dim>512</dim>
					<dim>7</dim>
					<dim>7</dim>
				</port>
			</input>
			<output>
				<port id="3">
					<dim>100</dim>
					<dim>2048</dim>
					<dim>7</dim>
					<dim>7</dim>
				</port>
			</output>
			<blobs>
				<weights offset="73071572" size="4194304"/>
				<biases offset="77265876" size="8192"/>
			</blobs>
		</layer>
		<layer id="126" name="SecondStageFeatureExtractor/resnet_v1_50/block4/unit_1/bottleneck_v1/add" precision="FP32" type="Eltwise">
			<data operation="sum"/>
			<input>
				<port id="0">
					<dim>100</dim>
					<dim>2048</dim>
					<dim>7</dim>
					<dim>7</dim>
				</port>
				<port id="1">
					<dim>100</dim>
					<dim>2048</dim>
					<dim>7</dim>
					<dim>7</dim>
				</port>
			</input>
			<output>
				<port id="2">
					<dim>100</dim>
					<dim>2048</dim>
					<dim>7</dim>
					<dim>7</dim>
				</port>
			</output>
		</layer>
		<layer id="127" name="SecondStageFeatureExtractor/resnet_v1_50/block4/unit_1/bottleneck_v1/Relu" precision="FP32" type="ReLU">
			<input>
				<port id="0">
					<dim>100</dim>
					<dim>2048</dim>
					<dim>7</dim>
					<dim>7</dim>
				</port>
			</input>
			<output>
				<port id="1">
					<dim>100</dim>
					<dim>2048</dim>
					<dim>7</dim>
					<dim>7</dim>
				</port>
			</output>
		</layer>
		<layer id="128" name="SecondStageFeatureExtractor/resnet_v1_50/block4/unit_2/bottleneck_v1/conv1/Conv2D" precision="FP32" type="Convolution">
			<data auto_pad="same_upper" dilations="1,1" group="1" kernel="1,1" output="512" pads_begin="0,0" pads_end="0,0" strides="1,1"/>
			<input>
				<port id="0">
					<dim>100</dim>
					<dim>2048</dim>
					<dim>7</dim>
					<dim>7</dim>
				</port>
			</input>
			<output>
				<port id="3">
					<dim>100</dim>
					<dim>512</dim>
					<dim>7</dim>
					<dim>7</dim>
				</port>
			</output>
			<blobs>
				<weights offset="77274068" size="4194304"/>
				<biases offset="81468372" size="2048"/>
			</blobs>
		</layer>
		<layer id="129" name="SecondStageFeatureExtractor/resnet_v1_50/block4/unit_2/bottleneck_v1/conv1/Relu" precision="FP32" type="ReLU">
			<input>
				<port id="0">
					<dim>100</dim>
					<dim>512</dim>
					<dim>7</dim>
					<dim>7</dim>
				</port>
			</input>
			<output>
				<port id="1">
					<dim>100</dim>
					<dim>512</dim>
					<dim>7</dim>
					<dim>7</dim>
				</port>
			</output>
		</layer>
		<layer id="130" name="SecondStageFeatureExtractor/resnet_v1_50/block4/unit_2/bottleneck_v1/conv2/Conv2D" precision="FP32" type="Convolution">
			<data auto_pad="same_upper" dilations="1,1" group="1" kernel="3,3" output="512" pads_begin="1,1" pads_end="1,1" strides="1,1"/>
			<input>
				<port id="0">
					<dim>100</dim>
					<dim>512</dim>
					<dim>7</dim>
					<dim>7</dim>
				</port>
			</input>
			<output>
				<port id="3">
					<dim>100</dim>
					<dim>512</dim>
					<dim>7</dim>
					<dim>7</dim>
				</port>
			</output>
			<blobs>
				<weights offset="81470420" size="9437184"/>
				<biases offset="90907604" size="2048"/>
			</blobs>
		</layer>
		<layer id="131" name="SecondStageFeatureExtractor/resnet_v1_50/block4/unit_2/bottleneck_v1/conv2/Relu" precision="FP32" type="ReLU">
			<input>
				<port id="0">
					<dim>100</dim>
					<dim>512</dim>
					<dim>7</dim>
					<dim>7</dim>
				</port>
			</input>
			<output>
				<port id="1">
					<dim>100</dim>
					<dim>512</dim>
					<dim>7</dim>
					<dim>7</dim>
				</port>
			</output>
		</layer>
		<layer id="132" name="SecondStageFeatureExtractor/resnet_v1_50/block4/unit_2/bottleneck_v1/conv3/Conv2D" precision="FP32" type="Convolution">
			<data auto_pad="same_upper" dilations="1,1" group="1" kernel="1,1" output="2048" pads_begin="0,0" pads_end="0,0" strides="1,1"/>
			<input>
				<port id="0">
					<dim>100</dim>
					<dim>512</dim>
					<dim>7</dim>
					<dim>7</dim>
				</port>
			</input>
			<output>
				<port id="3">
					<dim>100</dim>
					<dim>2048</dim>
					<dim>7</dim>
					<dim>7</dim>
				</port>
			</output>
			<blobs>
				<weights offset="90909652" size="4194304"/>
				<biases offset="95103956" size="8192"/>
			</blobs>
		</layer>
		<layer id="133" name="SecondStageFeatureExtractor/resnet_v1_50/block4/unit_2/bottleneck_v1/add" precision="FP32" type="Eltwise">
			<data operation="sum"/>
			<input>
				<port id="0">
					<dim>100</dim>
					<dim>2048</dim>
					<dim>7</dim>
					<dim>7</dim>
				</port>
				<port id="1">
					<dim>100</dim>
					<dim>2048</dim>
					<dim>7</dim>
					<dim>7</dim>
				</port>
			</input>
			<output>
				<port id="2">
					<dim>100</dim>
					<dim>2048</dim>
					<dim>7</dim>
					<dim>7</dim>
				</port>
			</output>
		</layer>
		<layer id="134" name="SecondStageFeatureExtractor/resnet_v1_50/block4/unit_2/bottleneck_v1/Relu" precision="FP32" type="ReLU">
			<input>
				<port id="0">
					<dim>100</dim>
					<dim>2048</dim>
					<dim>7</dim>
					<dim>7</dim>
				</port>
			</input>
			<output>
				<port id="1">
					<dim>100</dim>
					<dim>2048</dim>
					<dim>7</dim>
					<dim>7</dim>
				</port>
			</output>
		</layer>
		<layer id="135" name="SecondStageFeatureExtractor/resnet_v1_50/block4/unit_3/bottleneck_v1/conv1/Conv2D" precision="FP32" type="Convolution">
			<data auto_pad="same_upper" dilations="1,1" group="1" kernel="1,1" output="512" pads_begin="0,0" pads_end="0,0" strides="1,1"/>
			<input>
				<port id="0">
					<dim>100</dim>
					<dim>2048</dim>
					<dim>7</dim>
					<dim>7</dim>
				</port>
			</input>
			<output>
				<port id="3">
					<dim>100</dim>
					<dim>512</dim>
					<dim>7</dim>
					<dim>7</dim>
				</port>
			</output>
			<blobs>
				<weights offset="95112148" size="4194304"/>
				<biases offset="99306452" size="2048"/>
			</blobs>
		</layer>
		<layer id="136" name="SecondStageFeatureExtractor/resnet_v1_50/block4/unit_3/bottleneck_v1/conv1/Relu" precision="FP32" type="ReLU">
			<input>
				<port id="0">
					<dim>100</dim>
					<dim>512</dim>
					<dim>7</dim>
					<dim>7</dim>
				</port>
			</input>
			<output>
				<port id="1">
					<dim>100</dim>
					<dim>512</dim>
					<dim>7</dim>
					<dim>7</dim>
				</port>
			</output>
		</layer>
		<layer id="137" name="SecondStageFeatureExtractor/resnet_v1_50/block4/unit_3/bottleneck_v1/conv2/Conv2D" precision="FP32" type="Convolution">
			<data auto_pad="same_upper" dilations="1,1" group="1" kernel="3,3" output="512" pads_begin="1,1" pads_end="1,1" strides="1,1"/>
			<input>
				<port id="0">
					<dim>100</dim>
					<dim>512</dim>
					<dim>7</dim>
					<dim>7</dim>
				</port>
			</input>
			<output>
				<port id="3">
					<dim>100</dim>
					<dim>512</dim>
					<dim>7</dim>
					<dim>7</dim>
				</port>
			</output>
			<blobs>
				<weights offset="99308500" size="9437184"/>
				<biases offset="108745684" size="2048"/>
			</blobs>
		</layer>
		<layer id="138" name="SecondStageFeatureExtractor/resnet_v1_50/block4/unit_3/bottleneck_v1/conv2/Relu" precision="FP32" type="ReLU">
			<input>
				<port id="0">
					<dim>100</dim>
					<dim>512</dim>
					<dim>7</dim>
					<dim>7</dim>
				</port>
			</input>
			<output>
				<port id="1">
					<dim>100</dim>
					<dim>512</dim>
					<dim>7</dim>
					<dim>7</dim>
				</port>
			</output>
		</layer>
		<layer id="139" name="SecondStageFeatureExtractor/resnet_v1_50/block4/unit_3/bottleneck_v1/conv3/Conv2D" precision="FP32" type="Convolution">
			<data auto_pad="same_upper" dilations="1,1" group="1" kernel="1,1" output="2048" pads_begin="0,0" pads_end="0,0" strides="1,1"/>
			<input>
				<port id="0">
					<dim>100</dim>
					<dim>512</dim>
					<dim>7</dim>
					<dim>7</dim>
				</port>
			</input>
			<output>
				<port id="3">
					<dim>100</dim>
					<dim>2048</dim>
					<dim>7</dim>
					<dim>7</dim>
				</port>
			</output>
			<blobs>
				<weights offset="108747732" size="4194304"/>
				<biases offset="112942036" size="8192"/>
			</blobs>
		</layer>
		<layer id="140" name="SecondStageFeatureExtractor/resnet_v1_50/block4/unit_3/bottleneck_v1/add" precision="FP32" type="Eltwise">
			<data operation="sum"/>
			<input>
				<port id="0">
					<dim>100</dim>
					<dim>2048</dim>
					<dim>7</dim>
					<dim>7</dim>
				</port>
				<port id="1">
					<dim>100</dim>
					<dim>2048</dim>
					<dim>7</dim>
					<dim>7</dim>
				</port>
			</input>
			<output>
				<port id="2">
					<dim>100</dim>
					<dim>2048</dim>
					<dim>7</dim>
					<dim>7</dim>
				</port>
			</output>
		</layer>
		<layer id="141" name="SecondStageFeatureExtractor/resnet_v1_50/block4/unit_3/bottleneck_v1/Relu" precision="FP32" type="ReLU">
			<input>
				<port id="0">
					<dim>100</dim>
					<dim>2048</dim>
					<dim>7</dim>
					<dim>7</dim>
				</port>
			</input>
			<output>
				<port id="1">
					<dim>100</dim>
					<dim>2048</dim>
					<dim>7</dim>
					<dim>7</dim>
				</port>
			</output>
		</layer>
		<layer id="142" name="19973_const" precision="I32" type="Const">
			<output>
				<port id="1">
					<dim>4</dim>
				</port>
			</output>
			<blobs>
				<custom offset="112950228" size="16"/>
			</blobs>
		</layer>
		<layer id="143" name="SecondStageBoxPredictor/AvgPool/Reshape" precision="FP32" type="Reshape">
			<input>
				<port id="0">
					<dim>100</dim>
					<dim>2048</dim>
					<dim>7</dim>
					<dim>7</dim>
				</port>
				<port id="1">
					<dim>4</dim>
				</port>
			</input>
			<output>
				<port id="2">
					<dim>100</dim>
					<dim>2048</dim>
					<dim>49</dim>
					<dim>1</dim>
				</port>
			</output>
		</layer>
		<layer id="144" name="SecondStageBoxPredictor/AvgPool/Pool" precision="FP32" type="Pooling">
			<data exclude-pad="false" kernel="49,1" pads_begin="0,0" pads_end="0,0" pool-method="avg" strides="1,1"/>
			<input>
				<port id="0">
					<dim>100</dim>
					<dim>2048</dim>
					<dim>49</dim>
					<dim>1</dim>
				</port>
			</input>
			<output>
				<port id="1">
					<dim>100</dim>
					<dim>2048</dim>
					<dim>1</dim>
					<dim>1</dim>
				</port>
			</output>
		</layer>
		<layer id="145" name="19975_const" precision="I32" type="Const">
			<output>
				<port id="1">
					<dim>4</dim>
				</port>
			</output>
			<blobs>
				<custom offset="112950244" size="16"/>
			</blobs>
		</layer>
		<layer id="146" name="SecondStageBoxPredictor/AvgPool/FinalReshape" precision="FP32" type="Reshape">
			<input>
				<port id="0">
					<dim>100</dim>
					<dim>2048</dim>
					<dim>1</dim>
					<dim>1</dim>
				</port>
				<port id="1">
					<dim>4</dim>
				</port>
			</input>
			<output>
				<port id="2">
					<dim>100</dim>
					<dim>2048</dim>
					<dim>1</dim>
					<dim>1</dim>
				</port>
			</output>
		</layer>
		<layer id="147" name="SecondStageBoxPredictor/AvgPool/Transpose" precision="FP32" type="Permute">
			<data order="0,2,3,1"/>
			<input>
				<port id="0">
					<dim>100</dim>
					<dim>2048</dim>
					<dim>1</dim>
					<dim>1</dim>
				</port>
			</input>
			<output>
				<port id="1">
					<dim>100</dim>
					<dim>1</dim>
					<dim>1</dim>
					<dim>2048</dim>
				</port>
			</output>
		</layer>
		<layer id="148" name="11218/Output_0/Data__const" precision="I32" type="Const">
			<output>
				<port id="1">
					<dim>2</dim>
				</port>
			</output>
			<blobs>
				<custom offset="112950260" size="8"/>
			</blobs>
		</layer>
		<layer id="149" name="SecondStageBoxPredictor/Flatten/flatten/Reshape" precision="FP32" type="Reshape">
			<input>
				<port id="0">
					<dim>100</dim>
					<dim>1</dim>
					<dim>1</dim>
					<dim>2048</dim>
				</port>
				<port id="1">
					<dim>2</dim>
				</port>
			</input>
			<output>
				<port id="2">
					<dim>100</dim>
					<dim>2048</dim>
				</port>
			</output>
		</layer>
		<layer id="150" name="SecondStageBoxPredictor/BoxEncodingPredictor/MatMul" precision="FP32" type="FullyConnected">
			<data out-size="360"/>
			<input>
				<port id="0">
					<dim>100</dim>
					<dim>2048</dim>
				</port>
			</input>
			<output>
				<port id="3">
					<dim>100</dim>
					<dim>360</dim>
				</port>
			</output>
			<blobs>
				<weights offset="112950268" size="2949120"/>
				<biases offset="115899388" size="1440"/>
			</blobs>
		</layer>
		<layer id="151" name="reshape_loc/value/Output_0/Data__const" precision="I32" type="Const">
			<output>
				<port id="1">
					<dim>4</dim>
				</port>
			</output>
			<blobs>
				<custom offset="115900828" size="16"/>
			</blobs>
		</layer>
		<layer id="152" name="reshape_loc" precision="FP32" type="Reshape">
			<input>
				<port id="0">
					<dim>100</dim>
					<dim>360</dim>
				</port>
				<port id="1">
					<dim>4</dim>
				</port>
			</input>
			<output>
				<port id="2">
					<dim>100</dim>
					<dim>90</dim>
					<dim>1</dim>
					<dim>4</dim>
				</port>
			</output>
		</layer>
		<layer id="153" name="crop_locs" precision="FP32" type="Crop">
			<data axis="1" dim="1" offset="0"/>
			<input>
				<port id="0">
					<dim>100</dim>
					<dim>90</dim>
					<dim>1</dim>
					<dim>4</dim>
				</port>
			</input>
			<output>
				<port id="1">
					<dim>100</dim>
					<dim>1</dim>
					<dim>1</dim>
					<dim>4</dim>
				</port>
			</output>
		</layer>
		<layer id="154" name="reshape_loc/locs_with_fake_background" precision="FP32" type="Concat">
			<data axis="1"/>
			<input>
				<port id="0">
					<dim>100</dim>
					<dim>1</dim>
					<dim>1</dim>
					<dim>4</dim>
				</port>
				<port id="1">
					<dim>100</dim>
					<dim>90</dim>
					<dim>1</dim>
					<dim>4</dim>
				</port>
			</input>
			<output>
				<port id="2">
					<dim>100</dim>
					<dim>91</dim>
					<dim>1</dim>
					<dim>4</dim>
				</port>
			</output>
		</layer>
		<layer id="155" name="reshape_locs_2d/value/Output_0/Data__const" precision="I32" type="Const">
			<output>
				<port id="1">
					<dim>2</dim>
				</port>
			</output>
			<blobs>
				<custom offset="115900844" size="8"/>
			</blobs>
		</layer>
		<layer id="156" name="reshape_locs_2d" precision="FP32" type="Reshape">
			<input>
				<port id="0">
					<dim>100</dim>
					<dim>91</dim>
					<dim>1</dim>
					<dim>4</dim>
				</port>
				<port id="1">
					<dim>2</dim>
				</port>
			</input>
			<output>
				<port id="2">
					<dim>9100</dim>
					<dim>4</dim>
				</port>
			</output>
		</layer>
		<layer id="157" name="ScaleShift/scale_locs" precision="FP32" type="ScaleShift">
			<input>
				<port id="0">
					<dim>9100</dim>
					<dim>4</dim>
				</port>
			</input>
			<output>
				<port id="3">
					<dim>9100</dim>
					<dim>4</dim>
				</port>
			</output>
			<blobs>
				<weights offset="115900852" size="16"/>
				<biases offset="115900868" size="16"/>
			</blobs>
		</layer>
		<layer id="158" name="do_reshape_locs/Dim/Output_0/Data__const" precision="I32" type="Const">
			<output>
				<port id="1">
					<dim>2</dim>
				</port>
			</output>
			<blobs>
				<custom offset="115900884" size="8"/>
			</blobs>
		</layer>
		<layer id="159" name="do_reshape_locs" precision="FP32" type="Reshape">
			<input>
				<port id="0">
					<dim>9100</dim>
					<dim>4</dim>
				</port>
				<port id="1">
					<dim>2</dim>
				</port>
			</input>
			<output>
				<port id="2">
					<dim>1</dim>
					<dim>36400</dim>
				</port>
			</output>
		</layer>
		<layer id="160" name="SecondStageBoxPredictor/ClassPredictor/MatMul" precision="FP32" type="FullyConnected">
			<data out-size="91"/>
			<input>
				<port id="0">
					<dim>100</dim>
					<dim>2048</dim>
				</port>
			</input>
			<output>
				<port id="3">
					<dim>100</dim>
					<dim>91</dim>
				</port>
			</output>
			<blobs>
				<weights offset="115900892" size="745472"/>
				<biases offset="116646364" size="364"/>
			</blobs>
		</layer>
		<layer id="161" name="SecondStageBoxPredictor/Reshape_1/shape/Output_0/Data__const" precision="I32" type="Const">
			<output>
				<port id="1">
					<dim>3</dim>
				</port>
			</output>
			<blobs>
				<custom offset="116646728" size="12"/>
			</blobs>
		</layer>
		<layer id="162" name="SecondStageBoxPredictor/Reshape_1" precision="FP32" type="Reshape">
			<input>
				<port id="0">
					<dim>100</dim>
					<dim>91</dim>
				</port>
				<port id="1">
					<dim>3</dim>
				</port>
			</input>
			<output>
				<port id="2">
					<dim>100</dim>
					<dim>1</dim>
					<dim>91</dim>
				</port>
			</output>
		</layer>
		<layer id="163" name="Squeeze_3/Dims/Output_0/Data__const" precision="I32" type="Const">
			<output>
				<port id="1">
					<dim>1</dim>
				</port>
			</output>
			<blobs>
				<custom offset="116646740" size="4"/>
			</blobs>
		</layer>
		<layer id="164" name="Squeeze_3" precision="FP32" type="Squeeze">
			<input>
				<port id="0">
					<dim>100</dim>
					<dim>1</dim>
					<dim>91</dim>
				</port>
				<port id="1">
					<dim>1</dim>
				</port>
			</input>
			<output>
				<port id="2">
					<dim>100</dim>
					<dim>91</dim>
				</port>
			</output>
		</layer>
		<layer id="165" name="Squeeze_3/softmax" precision="FP32" type="SoftMax">
			<data axis="1"/>
			<input>
				<port id="0">
					<dim>100</dim>
					<dim>91</dim>
				</port>
			</input>
			<output>
				<port id="1">
					<dim>100</dim>
					<dim>91</dim>
				</port>
			</output>
		</layer>
		<layer id="166" name="do_reshape_conf/value/Output_0/Data__const" precision="I32" type="Const">
			<output>
				<port id="1">
					<dim>2</dim>
				</port>
			</output>
			<blobs>
				<custom offset="116646744" size="8"/>
			</blobs>
		</layer>
		<layer id="167" name="do_reshape_conf" precision="FP32" type="Reshape">
			<input>
				<port id="0">
					<dim>100</dim>
					<dim>91</dim>
				</port>
				<port id="1">
					<dim>2</dim>
				</port>
			</input>
			<output>
				<port id="2">
					<dim>1</dim>
					<dim>9100</dim>
				</port>
			</output>
		</layer>
		<layer id="168" name="reshape_proposal_4d/value/Output_0/Data__const" precision="I32" type="Const">
			<output>
				<port id="1">
					<dim>4</dim>
				</port>
			</output>
			<blobs>
				<custom offset="116646752" size="16"/>
			</blobs>
		</layer>
		<layer id="169" name="reshape_proposal_4d" precision="FP32" type="Reshape">
			<input>
				<port id="0">
					<dim>100</dim>
					<dim>5</dim>
					<dim>1</dim>
					<dim>1</dim>
				</port>
				<port id="1">
					<dim>4</dim>
				</port>
			</input>
			<output>
				<port id="2">
					<dim>1</dim>
					<dim>1</dim>
					<dim>100</dim>
					<dim>5</dim>
				</port>
			</output>
		</layer>
		<layer id="170" name="crop_proposals" precision="FP32" type="Crop">
			<data axis="3" dim="4" offset="1"/>
			<input>
				<port id="0">
					<dim>1</dim>
					<dim>1</dim>
					<dim>100</dim>
					<dim>5</dim>
				</port>
			</input>
			<output>
				<port id="1">
					<dim>1</dim>
					<dim>1</dim>
					<dim>100</dim>
					<dim>4</dim>
				</port>
			</output>
		</layer>
		<layer id="171" name="DetectionOutput_reshape_priors_/value/Output_0/Data__const" precision="I32" type="Const">
			<output>
				<port id="1">
					<dim>3</dim>
				</port>
			</output>
			<blobs>
				<custom offset="116646768" size="12"/>
			</blobs>
		</layer>
		<layer id="172" name="DetectionOutput_reshape_priors_" precision="FP32" type="Reshape">
			<input>
				<port id="0">
					<dim>1</dim>
					<dim>1</dim>
					<dim>100</dim>
					<dim>4</dim>
				</port>
				<port id="1">
					<dim>3</dim>
				</port>
			</input>
			<output>
				<port id="2">
					<dim>1</dim>
					<dim>1</dim>
					<dim>400</dim>
				</port>
			</output>
		</layer>
		<layer id="173" name="detection_output" precision="FP32" type="DetectionOutput">
			<data clip_after_nms="0" clip_before_nms="1" code_type="caffe.PriorBoxParameter.CENTER_SIZE" confidence_threshold="0.300000011921" input_height="1" input_width="1" keep_top_k="100" nms_threshold="0.600000023842" normalized="1" num_classes="91" pad_mode="caffe.ResizeParameter.CONSTANT" resize_mode="caffe.ResizeParameter.WARP" share_location="0" top_k="100" variance_encoded_in_target="1"/>
			<input>
				<port id="0">
					<dim>1</dim>
					<dim>36400</dim>
				</port>
				<port id="1">
					<dim>1</dim>
					<dim>9100</dim>
				</port>
				<port id="2">
					<dim>1</dim>
					<dim>1</dim>
					<dim>400</dim>
				</port>
			</input>
			<output>
				<port id="3">
					<dim>1</dim>
					<dim>1</dim>
					<dim>100</dim>
					<dim>7</dim>
				</port>
			</output>
		</layer>
	</layers>
	<edges>
		<edge from-layer="0" from-port="0" to-layer="1" to-port="0"/>
		<edge from-layer="1" from-port="3" to-layer="2" to-port="0"/>
		<edge from-layer="2" from-port="3" to-layer="3" to-port="0"/>
		<edge from-layer="3" from-port="1" to-layer="4" to-port="0"/>
		<edge from-layer="4" from-port="1" to-layer="5" to-port="0"/>
		<edge from-layer="4" from-port="1" to-layer="6" to-port="0"/>
		<edge from-layer="6" from-port="3" to-layer="7" to-port="0"/>
		<edge from-layer="7" from-port="1" to-layer="8" to-port="0"/>
		<edge from-layer="8" from-port="3" to-layer="9" to-port="0"/>
		<edge from-layer="9" from-port="1" to-layer="10" to-port="0"/>
		<edge from-layer="5" from-port="3" to-layer="11" to-port="0"/>
		<edge from-layer="10" from-port="3" to-layer="11" to-port="1"/>
		<edge from-layer="11" from-port="2" to-layer="12" to-port="0"/>
		<edge from-layer="12" from-port="1" to-layer="13" to-port="0"/>
		<edge from-layer="13" from-port="3" to-layer="14" to-port="0"/>
		<edge from-layer="14" from-port="1" to-layer="15" to-port="0"/>
		<edge from-layer="15" from-port="3" to-layer="16" to-port="0"/>
		<edge from-layer="16" from-port="1" to-layer="17" to-port="0"/>
		<edge from-layer="12" from-port="1" to-layer="18" to-port="0"/>
		<edge from-layer="17" from-port="3" to-layer="18" to-port="1"/>
		<edge from-layer="18" from-port="2" to-layer="19" to-port="0"/>
		<edge from-layer="19" from-port="1" to-layer="20" to-port="0"/>
		<edge from-layer="19" from-port="1" to-layer="21" to-port="0"/>
		<edge from-layer="21" from-port="3" to-layer="22" to-port="0"/>
		<edge from-layer="22" from-port="1" to-layer="23" to-port="0"/>
		<edge from-layer="23" from-port="3" to-layer="24" to-port="0"/>
		<edge from-layer="24" from-port="1" to-layer="25" to-port="0"/>
		<edge from-layer="20" from-port="1" to-layer="26" to-port="0"/>
		<edge from-layer="25" from-port="3" to-layer="26" to-port="1"/>
		<edge from-layer="26" from-port="2" to-layer="27" to-port="0"/>
		<edge from-layer="27" from-port="1" to-layer="28" to-port="0"/>
		<edge from-layer="27" from-port="1" to-layer="29" to-port="0"/>
		<edge from-layer="29" from-port="3" to-layer="30" to-port="0"/>
		<edge from-layer="30" from-port="1" to-layer="31" to-port="0"/>
		<edge from-layer="31" from-port="3" to-layer="32" to-port="0"/>
		<edge from-layer="32" from-port="1" to-layer="33" to-port="0"/>
		<edge from-layer="28" from-port="3" to-layer="34" to-port="0"/>
		<edge from-layer="33" from-port="3" to-layer="34" to-port="1"/>
		<edge from-layer="34" from-port="2" to-layer="35" to-port="0"/>
		<edge from-layer="35" from-port="1" to-layer="36" to-port="0"/>
		<edge from-layer="36" from-port="3" to-layer="37" to-port="0"/>
		<edge from-layer="37" from-port="1" to-layer="38" to-port="0"/>
		<edge from-layer="38" from-port="3" to-layer="39" to-port="0"/>
		<edge from-layer="39" from-port="1" to-layer="40" to-port="0"/>
		<edge from-layer="35" from-port="1" to-layer="41" to-port="0"/>
		<edge from-layer="40" from-port="3" to-layer="41" to-port="1"/>
		<edge from-layer="41" from-port="2" to-layer="42" to-port="0"/>
		<edge from-layer="42" from-port="1" to-layer="43" to-port="0"/>
		<edge from-layer="43" from-port="3" to-layer="44" to-port="0"/>
		<edge from-layer="44" from-port="1" to-layer="45" to-port="0"/>
		<edge from-layer="45" from-port="3" to-layer="46" to-port="0"/>
		<edge from-layer="46" from-port="1" to-layer="47" to-port="0"/>
		<edge from-layer="42" from-port="1" to-layer="48" to-port="0"/>
		<edge from-layer="47" from-port="3" to-layer="48" to-port="1"/>
		<edge from-layer="48" from-port="2" to-layer="49" to-port="0"/>
		<edge from-layer="49" from-port="1" to-layer="50" to-port="0"/>
		<edge from-layer="49" from-port="1" to-layer="51" to-port="0"/>
		<edge from-layer="51" from-port="3" to-layer="52" to-port="0"/>
		<edge from-layer="52" from-port="1" to-layer="53" to-port="0"/>
		<edge from-layer="53" from-port="3" to-layer="54" to-port="0"/>
		<edge from-layer="54" from-port="1" to-layer="55" to-port="0"/>
		<edge from-layer="50" from-port="1" to-layer="56" to-port="0"/>
		<edge from-layer="55" from-port="3" to-layer="56" to-port="1"/>
		<edge from-layer="56" from-port="2" to-layer="57" to-port="0"/>
		<edge from-layer="57" from-port="1" to-layer="58" to-port="0"/>
		<edge from-layer="57" from-port="1" to-layer="59" to-port="0"/>
		<edge from-layer="59" from-port="3" to-layer="60" to-port="0"/>
		<edge from-layer="60" from-port="1" to-layer="61" to-port="0"/>
		<edge from-layer="61" from-port="3" to-layer="62" to-port="0"/>
		<edge from-layer="62" from-port="1" to-layer="63" to-port="0"/>
		<edge from-layer="58" from-port="3" to-layer="64" to-port="0"/>
		<edge from-layer="63" from-port="3" to-layer="64" to-port="1"/>
		<edge from-layer="64" from-port="2" to-layer="65" to-port="0"/>
		<edge from-layer="65" from-port="1" to-layer="66" to-port="0"/>
		<edge from-layer="66" from-port="3" to-layer="67" to-port="0"/>
		<edge from-layer="67" from-port="1" to-layer="68" to-port="0"/>
		<edge from-layer="68" from-port="3" to-layer="69" to-port="0"/>
		<edge from-layer="69" from-port="1" to-layer="70" to-port="0"/>
		<edge from-layer="65" from-port="1" to-layer="71" to-port="0"/>
		<edge from-layer="70" from-port="3" to-layer="71" to-port="1"/>
		<edge from-layer="71" from-port="2" to-layer="72" to-port="0"/>
		<edge from-layer="72" from-port="1" to-layer="73" to-port="0"/>
		<edge from-layer="73" from-port="3" to-layer="74" to-port="0"/>
		<edge from-layer="74" from-port="1" to-layer="75" to-port="0"/>
		<edge from-layer="75" from-port="3" to-layer="76" to-port="0"/>
		<edge from-layer="76" from-port="1" to-layer="77" to-port="0"/>
		<edge from-layer="72" from-port="1" to-layer="78" to-port="0"/>
		<edge from-layer="77" from-port="3" to-layer="78" to-port="1"/>
		<edge from-layer="78" from-port="2" to-layer="79" to-port="0"/>
		<edge from-layer="79" from-port="1" to-layer="80" to-port="0"/>
		<edge from-layer="80" from-port="3" to-layer="81" to-port="0"/>
		<edge from-layer="81" from-port="1" to-layer="82" to-port="0"/>
		<edge from-layer="82" from-port="3" to-layer="83" to-port="0"/>
		<edge from-layer="83" from-port="1" to-layer="84" to-port="0"/>
		<edge from-layer="79" from-port="1" to-layer="85" to-port="0"/>
		<edge from-layer="84" from-port="3" to-layer="85" to-port="1"/>
		<edge from-layer="85" from-port="2" to-layer="86" to-port="0"/>
		<edge from-layer="86" from-port="1" to-layer="87" to-port="0"/>
		<edge from-layer="87" from-port="3" to-layer="88" to-port="0"/>
		<edge from-layer="88" from-port="1" to-layer="89" to-port="0"/>
		<edge from-layer="89" from-port="3" to-layer="90" to-port="0"/>
		<edge from-layer="90" from-port="1" to-layer="91" to-port="0"/>
		<edge from-layer="86" from-port="1" to-layer="92" to-port="0"/>
		<edge from-layer="91" from-port="3" to-layer="92" to-port="1"/>
		<edge from-layer="92" from-port="2" to-layer="93" to-port="0"/>
		<edge from-layer="93" from-port="1" to-layer="94" to-port="0"/>
		<edge from-layer="94" from-port="3" to-layer="95" to-port="0"/>
		<edge from-layer="95" from-port="1" to-layer="96" to-port="0"/>
		<edge from-layer="96" from-port="3" to-layer="97" to-port="0"/>
		<edge from-layer="97" from-port="1" to-layer="98" to-port="0"/>
		<edge from-layer="93" from-port="1" to-layer="99" to-port="0"/>
		<edge from-layer="98" from-port="3" to-layer="99" to-port="1"/>
		<edge from-layer="99" from-port="2" to-layer="100" to-port="0"/>
		<edge from-layer="100" from-port="1" to-layer="101" to-port="0"/>
		<edge from-layer="101" from-port="3" to-layer="102" to-port="0"/>
		<edge from-layer="102" from-port="1" to-layer="103" to-port="0"/>
		<edge from-layer="103" from-port="3" to-layer="105" to-port="0"/>
		<edge from-layer="104" from-port="1" to-layer="105" to-port="1"/>
		<edge from-layer="105" from-port="2" to-layer="106" to-port="0"/>
		<edge from-layer="106" from-port="1" to-layer="107" to-port="0"/>
		<edge from-layer="107" from-port="1" to-layer="109" to-port="0"/>
		<edge from-layer="108" from-port="1" to-layer="109" to-port="1"/>
		<edge from-layer="102" from-port="1" to-layer="110" to-port="0"/>
		<edge from-layer="109" from-port="2" to-layer="112" to-port="0"/>
		<edge from-layer="110" from-port="3" to-layer="112" to-port="1"/>
		<edge from-layer="111" from-port="0" to-layer="112" to-port="2"/>
		<edge from-layer="112" from-port="3" to-layer="114" to-port="0"/>
		<edge from-layer="113" from-port="1" to-layer="114" to-port="1"/>
		<edge from-layer="114" from-port="2" to-layer="115" to-port="0"/>
		<edge from-layer="115" from-port="2" to-layer="117" to-port="0"/>
		<edge from-layer="116" from-port="1" to-layer="117" to-port="1"/>
		<edge from-layer="100" from-port="1" to-layer="118" to-port="0"/>
		<edge from-layer="117" from-port="2" to-layer="118" to-port="1"/>
		<edge from-layer="118" from-port="2" to-layer="119" to-port="0"/>
		<edge from-layer="119" from-port="1" to-layer="120" to-port="0"/>
		<edge from-layer="119" from-port="1" to-layer="121" to-port="0"/>
		<edge from-layer="121" from-port="3" to-layer="122" to-port="0"/>
		<edge from-layer="122" from-port="1" to-layer="123" to-port="0"/>
		<edge from-layer="123" from-port="3" to-layer="124" to-port="0"/>
		<edge from-layer="124" from-port="1" to-layer="125" to-port="0"/>
		<edge from-layer="120" from-port="3" to-layer="126" to-port="0"/>
		<edge from-layer="125" from-port="3" to-layer="126" to-port="1"/>
		<edge from-layer="126" from-port="2" to-layer="127" to-port="0"/>
		<edge from-layer="127" from-port="1" to-layer="128" to-port="0"/>
		<edge from-layer="128" from-port="3" to-layer="129" to-port="0"/>
		<edge from-layer="129" from-port="1" to-layer="130" to-port="0"/>
		<edge from-layer="130" from-port="3" to-layer="131" to-port="0"/>
		<edge from-layer="131" from-port="1" to-layer="132" to-port="0"/>
		<edge from-layer="127" from-port="1" to-layer="133" to-port="0"/>
		<edge from-layer="132" from-port="3" to-layer="133" to-port="1"/>
		<edge from-layer="133" from-port="2" to-layer="134" to-port="0"/>
		<edge from-layer="134" from-port="1" to-layer="135" to-port="0"/>
		<edge from-layer="135" from-port="3" to-layer="136" to-port="0"/>
		<edge from-layer="136" from-port="1" to-layer="137" to-port="0"/>
		<edge from-layer="137" from-port="3" to-layer="138" to-port="0"/>
		<edge from-layer="138" from-port="1" to-layer="139" to-port="0"/>
		<edge from-layer="134" from-port="1" to-layer="140" to-port="0"/>
		<edge from-layer="139" from-port="3" to-layer="140" to-port="1"/>
		<edge from-layer="140" from-port="2" to-layer="141" to-port="0"/>
		<edge from-layer="141" from-port="1" to-layer="143" to-port="0"/>
		<edge from-layer="142" from-port="1" to-layer="143" to-port="1"/>
		<edge from-layer="143" from-port="2" to-layer="144" to-port="0"/>
		<edge from-layer="144" from-port="1" to-layer="146" to-port="0"/>
		<edge from-layer="145" from-port="1" to-layer="146" to-port="1"/>
		<edge from-layer="146" from-port="2" to-layer="147" to-port="0"/>
		<edge from-layer="147" from-port="1" to-layer="149" to-port="0"/>
		<edge from-layer="148" from-port="1" to-layer="149" to-port="1"/>
		<edge from-layer="149" from-port="2" to-layer="150" to-port="0"/>
		<edge from-layer="150" from-port="3" to-layer="152" to-port="0"/>
		<edge from-layer="151" from-port="1" to-layer="152" to-port="1"/>
		<edge from-layer="152" from-port="2" to-layer="153" to-port="0"/>
		<edge from-layer="153" from-port="1" to-layer="154" to-port="0"/>
		<edge from-layer="152" from-port="2" to-layer="154" to-port="1"/>
		<edge from-layer="154" from-port="2" to-layer="156" to-port="0"/>
		<edge from-layer="155" from-port="1" to-layer="156" to-port="1"/>
		<edge from-layer="156" from-port="2" to-layer="157" to-port="0"/>
		<edge from-layer="157" from-port="3" to-layer="159" to-port="0"/>
		<edge from-layer="158" from-port="1" to-layer="159" to-port="1"/>
		<edge from-layer="149" from-port="2" to-layer="160" to-port="0"/>
		<edge from-layer="160" from-port="3" to-layer="162" to-port="0"/>
		<edge from-layer="161" from-port="1" to-layer="162" to-port="1"/>
		<edge from-layer="162" from-port="2" to-layer="164" to-port="0"/>
		<edge from-layer="163" from-port="1" to-layer="164" to-port="1"/>
		<edge from-layer="164" from-port="2" to-layer="165" to-port="0"/>
		<edge from-layer="165" from-port="1" to-layer="167" to-port="0"/>
		<edge from-layer="166" from-port="1" to-layer="167" to-port="1"/>
		<edge from-layer="115" from-port="2" to-layer="169" to-port="0"/>
		<edge from-layer="168" from-port="1" to-layer="169" to-port="1"/>
		<edge from-layer="169" from-port="2" to-layer="170" to-port="0"/>
		<edge from-layer="170" from-port="1" to-layer="172" to-port="0"/>
		<edge from-layer="171" from-port="1" to-layer="172" to-port="1"/>
		<edge from-layer="159" from-port="2" to-layer="173" to-port="0"/>
		<edge from-layer="167" from-port="2" to-layer="173" to-port="1"/>
		<edge from-layer="172" from-port="2" to-layer="173" to-port="2"/>
	</edges>
	<meta_data>
		<MO_version value="2019.3.0-408-gac8584cb7"/>
		<cli_parameters>
			<blobs_as_inputs value="False"/>
			<data_type value="float"/>
			<disable_nhwc_to_nchw value="False"/>
			<disable_resnet_optimization value="False"/>
			<enable_concat_optimization value="False"/>
			<extensions value="DIR"/>
			<framework value="tf"/>
			<freeze_placeholder_with_value value="{}"/>
			<generate_experimental_IR_V10 value="False"/>
			<input_model value="DIR/frozen_inference_graph.pb"/>
			<input_model_is_text value="False"/>
			<keep_quantize_ops_in_IR value="False"/>
			<keep_shape_ops value="False"/>
			<log_level value="ERROR"/>
			<mean_scale_values value="{}"/>
			<mean_values value="()"/>
			<move_to_preprocess value="False"/>
			<output_dir value="DIR"/>
			<reverse_input_channels value="True"/>
			<scale_values value="()"/>
			<silent value="False"/>
			<steps value="False"/>
			<tensorflow_object_detection_api_pipeline_config value="DIR/pipeline.config"/>
			<tensorflow_use_custom_operations_config value="DIR/faster_rcnn_support.json"/>
			<version value="False"/>
			<unset unset_cli_parameters="batch, disable_fusing, disable_gfusing, finegrain_fusing, generate_deprecated_IR_V2, input, input_checkpoint, input_meta_graph, input_shape, model_name, output, placeholder_shapes, saved_model_dir, saved_model_tags, scale, tensorboard_logdir, tensorflow_custom_layer_libraries, tensorflow_custom_operations_config_update, tensorflow_operation_patterns, tensorflow_subgraph_patterns"/>
		</cli_parameters>
	</meta_data>
</net>
